actor_checkpoint.pth (torch_old, 541467 bytes, 6 tensors)

0.weight f4 [400, 33]
00000000: 7ebc 103e 594c 743d addc b93d c075 66be
00000010: 3cf4 c93d 3f81 c7bd e1d5 a13d ce14 7fbe
00000020: d9ca afbd 51e2 433d 7e2e 5b3e bd80 5abd
00000030: 2f6f 45bd 23b4 febd fb15 97bd 38fc 783d
00000040: e8a1 0cbf 2b34 54be e597 acbe 8111 97be
00000050: affc 593d ac11 1ebe edd5 e2be 4678 55be
00000060: 7518 a73d 9ac4 033e ab0f dd3a 3552 86bd
00000070: a2d0 b0bd 72b9 11be eb50 1f3d ff85 c7bd
00000080: 8474 2f3e 1230 483e 2df4 953c a31a b73d
00000090: 100e 9bbe 7f48 99be 24d5 04be 73bf 233e
000000a0: 5034 873d c368 edbd 54b6 79be c606 563d
000000b0: 289a dbbc a080 083e 2c5a 073e 9570 61bd
000000c0: 7311 b5bd 9933 70be 1eb4 ab3e 4908 913e
000000d0: 3523 0c3e c720 3cbe 63ae 913d 1a78 8abe
000000e0: d8cf 5c3e dde8 4a3e 7a09 333e 8576 2fbe
000000f0: 2414 2a3e c840 a43c 9732 b7bd 5c18 bd3c
00000100: 90a7 a53d b327 2b3f a5b7 2abe dd47 52be
00000110: 88c3 3f3e d72f 7c3e 6f70 843e 25cc 3bbd
00000120: 13e4 9a3e 5171 a33d c872 0ebe 1f04 c43d
00000130: 5bc7 11be 13b2 07bd 455b 5f3e 0901 1bbd
00000140: 9152 10bc 0b89 c83b f4ca 383c fc2f aa3b
00000150: edf3 d93e 348f 2bbe f7a7 463d f370 43be
00000160: a1ab 8d3d 3ce5 623c 0085 62bb de04 513e
00000170: 8e9f 18bd db54 5ebe 8726 8ebc fc11 313e
00000180: bd04 0b3e 80a1 a8bb 0a53 2bbe a44f 29be
00000190: 0f03 003e 4ee5 893c 6e01 42bd d23e 033e
000001a0: 4ec4 b5bc 62e4 c6bd 5a4d 0bbe 62a7 0d3e
000001b0: be89 0e3e 34b1 e1be 7bdc 08be e35a 11be
000001c0: 83dd 09be 226f b23e 21ce e23b e2b0 74be
000001d0: 6fda c03d dfc4 1a3e 8095 523e 25a5 45be
000001e0: c96b 37bd af1f d6bd 58d4 9ebc fd56 0b3c
000001f0: e894 d93d 08b0 7dbe ed29 a9bd fdd9 0abe
00000200: 1c6d f63d f933 61bd 6e53 bcbd 019c 043f
00000210: 2c6f 2abd 0688 05bc 889d 17be f454 cdbd
00000220: 83b3 d1be 9f77 dc3a 49f0 d6be 7d03 de3d
00000230: 2f1a 003d 7816 9dbe fe96 603d d09c 61be
00000240: e3cf bebc 0543 e43d 9ba1 1c3e 7080 b6bc
00000250: 3d62 893e 0b76 3a3f 8faf f8be 67c8 9b3e
00000260: cc58 d33c 14ff 123e f3c5 0b3e 0119 3e3d
00000270: 331a 3abe 2797 263d fd36 453e 7237 bdbd
00000280: 0727 653e a8b1 bb3c 6e4d b53d b04f 1ebe
00000290: fefd 893d 54ca b3bd 932e 91be e9a3 3fbe
000002a0: dbb6 413e 2af3 fdbd b0b1 7fbd 8f37 b3bd
000002b0: b60d f2bd 7cc2 793d 17db 8b3c c74d 13bd
000002c0: b518 9f3d bdb9 07be d9b5 683e 4975 69be
000002d0: 624a 023e 8e8f 95bd 7fac 01bb 4139 8a3e
000002e0: e2b0 393e 5add f73d 5017 933d b9ea eabd
000002f0: 1f40 2bbd f8e0 21be aef3 2f3d f808 52be
00000300: de47 f73d 35dc 043d b023 ec3c 01f4 3c3e
00000310: c061 dc3d daab a5be 5eb3 253e f93e e63d
00000320: e51e 883d f78f 51be 5154 43bc 2c7e 13bf
00000330: 08bf 98bd d001 8dbd ce5d 8ebe 8f29 c5bb
00000340: feb1 74bc 062b 293e 7d5a 323d 5e46 46be
00000350: fb8b 2f3d c6d5 26be 5405 bb3e 217b dbbc
00000360: c026 c23e e262 7dbd 1f5b c23c a3da 213e
00000370: 5d37 323d 8535 d53d 5bdc 71be c3a2 d13d
00000380: e665 e93d 243f 423c 721e 583e c9c7 18be
00000390: fb7e 4f3d f86a 27bd bb6b 2bbe 88d1 31be
000003a0: 0d92 8c3e ed45 543d 8a6c 2dbe 75ba c3bd
000003b0: b9ee 47be d205 55bd 215d 0b3e f6cc 2d3c
000003c0: 8b53 c5bd df9f 86bd 1c69 6f3d c743 0dbe
000003d0: 8449 c03d 713f 8dbd 5dc4 cf3c 0f3c eb3e
000003e0: b6d6 0fbf a11e e8be 8ae0 9b3e 563a ddbd
000003f0: f03a cb3d bebb db3d da0b 3e3e 8002 003e
0.14134404 0.059643123 0.09075294 -0.22505856 0.09861037 -0.097414486 0.07902122 -0.2491028
-0.08583612 0.047823254 0.21404454 -0.05334543 -0.048201736 -0.12436702 -0.07377239 0.06078741
-0.5493455 -0.20723026 -0.33709636 -0.29505542 0.053219493 -0.15436429 -0.44303837 -0.20846662
0.08158962 0.12867966 0.0016865631 -0.065586485 -0.086335436 -0.14230898 0.03889553 -0.097423546
0.17134291 0.19549587 0.018304909 0.089406274 -0.30284166 -0.29938123 -0.12971932 0.15991001
0.06601775 -0.11592247 -0.24385959 0.052252553 -0.026806906 0.13330317 0.13217992 -0.055039007
-0.08841219 -0.23457183 0.33535856 0.28326634 0.13685305 -0.18371879 0.0711334 -0.27044755
0.21563661 0.19815393 0.17484084 -0.17135055 0.16609246 0.020050421 -0.08945196 0.023082905
0.08088601 0.6685745 -0.16671617 -0.20535226 0.18726933 0.24627624 0.2586703 -0.045848984
0.30252132 0.07980598 -0.13910973 0.095710985 -0.14236204 -0.03312881 0.2181216 -0.037842784
-0.008808748 0.0061198524 0.011278857 0.0051937085 0.42568913 -0.16753846 0.048500028 -0.19086055
0.06917501 0.013848599 -0.0034564137 0.20412013 -0.03726154 -0.21712057 -0.017352356 0.17292017
0.13576026 -0.0051462054 -0.16730896 -0.16534287 0.12501167 0.016832974 -0.047364645 0.12816933
-0.022188332 -0.09711529 -0.13603726 0.13833383 0.13919732 -0.44080508 -0.13365357 -0.14194827
-0.13463406 0.34850413 0.006921545 -0.238956 0.09416663 0.15114163 0.20564842 -0.19301279
-0.044780526 -0.10455262 -0.019388363 0.008504626 0.10624105 -0.24774182 -0.0825995 -0.13559718
0.1203253 -0.054981206 -0.091956005 0.51800543 -0.041609928 -0.008150106 -0.14806187 -0.10025969
-0.4095727 0.0016820318 -0.41980198 0.10840509 0.03127497 -0.30681205 0.054831497 -0.22032475
-0.023292487 0.111455955 0.15296023 -0.02227804 0.26832762 0.7283637 -0.4857144 0.30426332
0.025799178 0.14355117 0.1364973 0.046410564 -0.18174057 0.040671494 0.19259258 -0.09239091
0.22378169 0.022911862 0.08852659 -0.15460086 0.06737898 -0.087788254 -0.28355846 -0.1871487
0.1891741 -0.123998955 -0.062425315 -0.08750831 -0.118190214 0.06097649 0.017072244 -0.035962846
0.07768384 -0.13254447 0.2272562 -0.22798647 0.12723687 -0.073027715 -0.0019786654 0.26996806
0.18133882 0.12102766 0.07182181 -0.11470551 -0.041809198 -0.15808475 0.042957 -0.20511234
0.120742545 0.03243657 0.02882561 0.18452455 0.10760832 -0.32357675 0.16181704 0.1124248
0.06646518 -0.20465074 -0.011921958 -0.576144 -0.07458311 -0.06885111 -0.27805942 -0.006016917
-0.014935015 0.16520318 0.043543328 -0.1936278 0.042858105 -0.16292486 0.36527503 -0.02679211
0.3792019 -0.06186188 0.02372509 0.1580606 0.04350983 0.10410599 -0.23619215 0.102361225
0.11396389 0.011855874 0.21105364 -0.14919962 0.050658207 -0.040873498 -0.16740315 -0.17365086
0.27455178 0.0518245 -0.16935936 -0.09557048 -0.19524659 -0.052007504 0.13609745 0.0106079485
-0.09635075 -0.06573462 0.05844985 -0.13795386 0.09389022 -0.06896866 0.025362188 0.4594426
-0.56187 -0.45335868 0.30444747 -0.10802142 0.09923351 0.10729168 0.18559209 0.12500954

0.bias f4 [400]
00000000: 7b5b eb3c 0764 5a3d 3ff2 043c 9943 093e
00000010: 8980 1fbe b012 493d 32f2 bebd 66d2 1a3d
00000020: 37d4 dbbd 81ec 27bd ddf2 863d a50f 113d
00000030: 4b38 51be 7e23 2b3d 25b9 9a3d aa5b 503e
00000040: 77fc 813d c8ef ad3d 0bb8 51be a897 b9bc
00000050: 040f 893e ce71 12be f486 9d3d b83f 113e
00000060: b0d6 9cbe d67f bfbd 9587 1d3e 2418 39bc
00000070: 71f0 c1bd fc62 ecbb 02d9 88bc 95b1 03bd
00000080: 8d19 d33d d24f c7bc ef4f 2dbe 26eb 51be
00000090: 003d 083e 1e38 3fbd 895f eb3d 519a 13be
000000a0: 8674 60bd 84fa cb3d 339e 103e 215e 523d
000000b0: 3680 3c3d 6d2b e23c 0bb9 833d d00c 093e
000000c0: 2e59 b63c 5745 0e3e 83dc 543d b6ac 523d
000000d0: 16a1 ec3d 852b 8bbd e9ad 38bc 9fb9 ecbd
000000e0: c594 80be e4de 423d bb1a d83d 92dd c83d
000000f0: d09b adbd 5847 7a3d ba40 e13b 480f 393e
00000100: 51bb 4dbd f10c 8fbd e072 d63d 9771 513a
00000110: ff24 0f3c 3db7 90bd 3838 ab3c b3f2 ce3d
00000120: 7dda fe3d fc04 223d cb5a 14be 0541 3c3d
00000130: fc2a 2d3e 62ff 023e 6575 f5bd 73dc 86bd
00000140: 22f9 e03b 7e62 bf3d 2391 4fbd 3c40 20bd
00000150: 5a7a 8fbc a861 603d 403e fabd 843d e3ba
00000160: e8b7 46bd ea27 febd b8f8 2ebc ecce 8fbd
00000170: 4381 8c3e ebb2 7abd 41fe e0bd b415 103e
00000180: 7131 d53c 067e 84bd 9434 0a3e 1e9d b23c
00000190: 72ae e9bc 8622 bfbd e50e a13b 1065 d53d
000001a0: 4129 cbbd 547c 093e 5269 d7bd 11cc fe3c
000001b0: 80d0 febc 6f0e d2bc 8a04 c4bd 74b9 db3d
000001c0: 882e 673e 1445 c93d 9b65 a53d efd0 62be
000001d0: f123 6e3d 39d3 47bd 9017 98bd e132 0fbe
000001e0: 0a03 c5bd 5a41 b73d e08e 21bc c870 e53c
000001f0: 5157 103e 33be 003e a4cc 9dbc 66cd 923d
00000200: 7fc3 3f3e 76e7 50bd 8080 8e3c 569e 9d3c
00000210: b9e1 153d f696 f4bd 0cfa 24bd b1d5 f2bd
00000220: c9c3 88bd 56a4 96bd 5f16 fdbb f041 03be
00000230: 4023 d33d ef40 683d ca5b c5bc e91a debd
00000240: d64d ce3d d7df d83b af55 1cbe 937e 293c
00000250: c14b b9bc 476a 60bd 4e7b 013e 0047 363e
00000260: 108a 27bd 9614 37be e03c 02be 4ca1 453d
00000270: 2e38 7a3d a4e1 823d 3d50 4fbe 9dd5 09be
00000280: d644 d73d 09ba 433d 78ac 793e 33da ba3b
00000290: c564 aebd 2c9e b83d 6582 b2bd 542b 30be
000002a0: c26b 8ebd 6e00 21bd c2f8 6b3d bbc7 b73c
000002b0: 97cf 13be fdee 32be 33e8 d0bc 7796 963d
000002c0: 60fc 86bd 5c65 5cbd 7550 f1bd 685c e53d
000002d0: f158 9f3b 28e6 2fbe 9edb ef3d 31a0 b6bd
000002e0: bb17 613c 022f 073e 35a5 e8bd 368c 4d3d
000002f0: 7f3d d43d 3960 5a3c 9bc7 9f3d 8e9a 723d
00000300: f5a0 1ebe 775d 643e 90df 3ebd 2b46 b3bd
00000310: 2e7b c9bd 87df 82bd 06a9 b13d c462 3bbe
00000320: 164c d6bd 2c0f a1bd 98f7 92bd ab45 033e
00000330: 28d6 b43d c99f 6a3d 829b bb3c 18f1 1cbd
00000340: 8378 cfbd e882 9e3d f465 2eba 9ca4 88be
00000350: 771f c43d 231b c2bd 3234 23bd 342e 283e
00000360: 6ed0 8d3d 35f8 bebd 959e 82bd 3686 b5bd
00000370: cfb1 c7bd 7dc8 e83d a990 40bd facb 81be
00000380: b0cd 823d 941a 27bd 2d98 ecbc 6254 063e
00000390: 5a14 acbd 949e d23d 1cb2 15be 6200 133d
000003a0: 8488 9cbd e7af 44bd 17ca 723d 57ca 0ebe
000003b0: 2246 38bd fc6f b6bd ecee 04be 6352 f6bd
000003c0: 70d1 a93d ba44 d1bc cae2 bbbd 7c6d 29bd
000003d0: 3d14 86bd 17e2 c03d aa6a 1abe d143 743d
000003e0: 3994 56bd f5aa 323e 78e6 823d 97da 37be
000003f0: a746 c4bd 3f62 303e bb82 4e3e 8f1c 93bd
0.028730145 0.05331805 0.008114397 0.13404693 -0.15576376 0.049090087 -0.09323539 0.037798308
-0.10733836 -0.040997032 0.06589291 0.03541531 -0.2043163 0.041781895 0.07554845 0.20347467
0.06346982 0.08493 -0.20480363 -0.022655323 0.2676927 -0.14301226 0.07691756 0.14184463
-0.30632544 -0.09350555 0.15383752 -0.0112972595 -0.09469689 -0.0072139483 -0.01670504 -0.032151777
0.10307608 -0.024330053 -0.16925023 -0.20499858 0.1330452 -0.046684377 0.11492831 -0.14414336
-0.054798625 0.099598914 0.14122848 0.0513593 0.04602071 0.027608598 0.064317785 0.13383794
0.022259321 0.13893639 0.05196811 0.05143424 0.11554162 -0.0679541 -0.011271932 -0.11558842
-0.25113502 0.047575846 0.105519734 0.09807886 -0.084769845 0.061103195 0.006874171 0.18072236
-0.050227467 -0.0698489 0.104711294 0.00079896435 0.008736848 -0.070662 0.02090083 0.10104885
0.12444017 0.039555535 -0.1448776 0.045960445 0.16910928 0.12792733 -0.11985282 -0.06585016
0.0068656364 0.09344958 -0.050675523 -0.03912376 -0.017514396 0.054780632 -0.122189045 -0.0017337059
-0.04851523 -0.12409957 -0.010679416 -0.07021889 0.2744237 -0.061205786 -0.10985995 0.14070779
0.026024552 -0.064693496 0.1349662 0.021803435 -0.028525565 -0.09332757 0.0049151056 0.10419667
-0.09919978 0.13426334 -0.10518135 0.031103166 -0.03110528 -0.025641648 -0.09571178 0.10728732
0.22576344 0.09827629 0.0807602 -0.22150014 0.058139745 -0.048785422 -0.07426369 -0.13984253
-0.0961972 0.08948012 -0.009860724 0.02800788 0.14095809 0.12572555 -0.01926262 0.07168083
0.1872692 -0.05100199 0.017395258 0.01924054 0.03659222 -0.11942856 -0.040277526 -0.11857165
-0.06677968 -0.07355563 -0.007723614 -0.12818122 0.10309458 0.05670255 -0.02409162 -0.108449765
0.1007344 0.0066184807 -0.1526706 0.010345119 -0.02261913 -0.054788854 0.12644693 0.17800522
-0.04090315 -0.17878947 -0.12718534 0.048249528 0.061088733 0.06390694 -0.20245452 -0.13460393
0.10511176 0.04778484 0.24382198 0.005702281 -0.08515314 0.09014544 -0.08716277 -0.17204028
-0.06954147 -0.03930705 0.05761028 0.022434106 -0.14434658 -0.1747398 -0.025501346 0.07352918
-0.065911055 -0.0538076 -0.11782924 0.11199266 0.0048628976 -0.17177641 0.117118105 -0.08917273
0.013738568 0.13201526 -0.11359636 0.050182544 0.10363292 0.013328605 0.078017436 0.059229426
-0.15491088 0.22301279 -0.046599925 -0.08753618 -0.09837948 -0.06390291 0.08674817 -0.18299395
-0.10463731 -0.07864222 -0.07176131 0.12819545 0.088299096 0.05728129 0.0229013 -0.038315862
-0.10130408 0.07739812 -0.00066527654 -0.26688087 0.09576314 -0.09477832 -0.0398447 0.16423875
0.069245204 -0.093246855 -0.06377903 -0.08863489 -0.09750711 0.11366365 -0.04701296 -0.25350934
0.06386888 -0.04079683 -0.028881157 0.13118127 -0.08402319 0.102841526 -0.14618725 0.035889037
-0.07643226 -0.048019316 0.05927476 -0.13944374 -0.04498876 -0.08908078 -0.12981766 -0.12027433
0.082919 -0.025545467 -0.09174116 -0.041364178 -0.06546829 0.09418123 -0.15079752 0.059634987
-0.05238745 0.17448027 0.06391615 -0.17954479 -0.09583788 0.17224978 0.20167057 -0.071831815

2.weight f4 [300, 400]
00000000: 89cc c5bd 68a2 58be 7f21 413e 302c 62bd
00000010: 8efc f73c 7c6c 0bbe d179 953d b53a a3be
00000020: 83de 1c3e cc83 45be 7d34 85bd 4bf6 c23c
00000030: cb54 aebc 821e 883d 12d0 d9bd ca34 8a3b
00000040: 60c5 27bc e19b 1bbe f4fd 383e 3b69 be3d
00000050: 23e9 93bd 8ed0 1b3d 93f4 873d e3cf 42be
00000060: 5d19 333d a909 6c3d 7312 03be 96f7 88be
00000070: 80e8 413d d250 8e3d 8cc8 b2bd 9903 a43b
00000080: f380 fbbb 32d9 3dbd ec32 e8bd aa7a 1e3e
00000090: 10d5 c63d fd49 1e3e 0c18 b43d f056 443d
000000a0: e8f4 edbd 6ac5 173e 7cf0 a2bd 386a d2bc
000000b0: 04b4 813d 0ba8 323d 81ae 763c 80e9 5dbe
000000c0: 028e 85bd 84da bbbc 3790 f8bd 2700 023c
000000d0: 1e69 e13d 227e 233d ed5e 7cbd b47e e23c
000000e0: 0fc6 f03c dc4c 013e 10dd e23d 5c15 3a3e
000000f0: 298f 273d eb15 c23c b4d5 d8bc 44b6 babb
00000100: e182 a53c 8fed 26bc 17fe 4c3c 37fb 633c
00000110: 30a1 87bd 2740 04be b7f2 65bd 90a7 c4bc
00000120: 86d6 fd3c 7260 af3d d8fd 75bc eacb b3bd
00000130: e7f2 d53d d63b b3bc 170a 023d 32f7 8f3d
00000140: 06e3 1b3d 78f9 d6bd 4212 42be db6e 65bd
00000150: b339 1abc 2fdd 1bbd 2416 16bd 4691 333c
00000160: ba14 b13d 1dbe d03a e945 55bc 608a 88bd
00000170: edba a13d e11f 2fbe 2347 7cbc ee76 653d
00000180: da7d da3d 9f53 a63b 3d26 913e 1379 0dbd
00000190: 5325 d63d 78be b7bd 3e31 ccbd f629 00be
000001a0: 2495 abbc 9774 ff3b ca07 833c 03d1 3b3e
000001b0: 279c d4bd bb09 a43d b2d1 443c 2a47 023e
000001c0: e234 49bd 3f59 62bd 6047 9dbd f3f3 8cba
000001d0: eb1a 1cbe eaba 653d 498f 40be fb69 a13d
000001e0: fa16 dd3d 4c43 2abe e9a3 d23d 9fe3 ef3c
000001f0: 406c 253e 83e6 433e 7acd 013d c01d 2d3e
00000200: f3a1 9ebd 3ffa df3d 575c c4bd 965f b13d
00000210: 590d 8ebe 1aa9 3b3b 6c65 afbc dfff 063e
00000220: 63ac 38bd 40d6 6ebe 11c1 00be 6b4f 903c
00000230: 9e82 00be b1bf 2dbd 3500 243e 5156 aa3d
00000240: e6fd 393e 3367 71be 596e ad3a 69dd 2c3e
00000250: b8f8 053e 87f4 103d 079f 0e3e 4699 ae3b
00000260: d2a0 6c3e a530 cebd 07f0 663d 5e34 813d
00000270: 5f28 aa3d 91ca 1b3d 2dad 03be 17a8 9ebc
00000280: f4da 2ebe 4c13 2bbd 1156 5e3b 2f74 bbbc
00000290: 8dc9 c0bd c175 113e c7f3 fdbb a2c9 6c3e
000002a0: 27d9 293e 154a a9bd ea4e 5c3d 89a1 653d
000002b0: 5c8c a9bb 367d df3d 5124 013e 2b14 65bd
000002c0: 8143 113e 19bd 0ebd 2e6d a9be 483d 0abe
000002d0: a83c 923d 46e7 e43c 7a66 4d3e 5871 f53c
000002e0: 9784 53bd 3250 f83c 2d26 3a3e 7305 8cbb
000002f0: c314 25bd 46da 77bd 7afd 5f3d 6c21 f43c
00000300: a458 87be fdd8 84bd b8a2 85bd b603 e4ba
00000310: 4afa 63bd e482 c5bd 0220 9b3d 2e97 b5bb
00000320: 265e 1d3c 0266 d7bd a579 99bc 328e 78be
00000330: 4072 29bc 2c47 023e 8514 053e a227 0dbe
00000340: 2647 0cbc 08be 5fbd 629b 94bc c2f8 083e
00000350: f25d a93c 004c 8bbd e84a 1cbe 8c5b 483c
00000360: 5256 89bd f96e afbd 87fc 0e3c 73b0 63bb
00000370: 73d5 433e 41d1 eebd 02af 8b3c 248d a93d
00000380: 0616 1e3d 61dc 16be 191d 21be b111 363d
00000390: 3e43 84bd cee3 333b e930 df3d 6f46 7a3d
000003a0: 356d e43d cb97 783d 2743 003d 5f5a 0bbd
000003b0: 3e17 9e3c 814b 90be 4814 8c3c 9026 f7bb
000003c0: b3eb bebd 3f37 533e 12df c139 45d5 533e
000003d0: 491f f6bd a048 6a3c ee98 08bd d3dc 1ebe
000003e0: 373b 30bd b3ef b9bd 6bf0 9abd ffb6 09bd
000003f0: 6ae3 a63d 7aac cf3d 5780 13be dd5e 893d
-0.096581526 -0.21155703 0.18860434 -0.05521792 0.030271795 -0.13615602 0.07298625 -0.31880727
0.15319256 -0.19288558 -0.06504152 0.023799082 -0.021280667 0.06646444 -0.106353894 0.0042177187
-0.010239929 -0.15196182 0.18065625 0.09297415 -0.07222202 0.03804069 0.06638446 -0.19024615
0.04372536 0.0576264 -0.12800007 -0.26751393 0.04734087 0.06949009 -0.087296575 0.0050053117
-0.007675284 -0.04634971 -0.113378376 0.1547648 0.09708607 0.15457912 0.08793649 0.047934473
-0.11618978 0.14821401 -0.07956025 -0.025685415 0.063331634 0.04361729 0.015056253 -0.21671104
-0.065212265 -0.022931345 -0.12136882 0.007934607 0.11006378 0.03991521 -0.061613966 0.027648307
0.029391317 0.12626976 0.110773206 0.1817221 0.040908013 0.023692092 -0.02646909 -0.0056979973
0.02020401 -0.010188474 0.012511752 0.013914875 -0.06622541 -0.12915097 -0.056139674 -0.024005681
0.030986082 0.08563317 -0.015014134 -0.08779128 0.104467206 -0.021879118 0.031747904 0.07029571
0.038058303 -0.10496801 -0.18952277 -0.056013923 -0.009413171 -0.038052734 -0.03664221 0.010959929
0.086465314 0.0015925799 -0.013017156 -0.06667018 0.078969814 -0.17102005 -0.01539782 0.056021623
0.106685355 0.0050758864 0.28349486 -0.034539293 0.10456338 -0.08971876 -0.0997033 -0.12516007
-0.02094514 0.007795881 0.015994925 0.1834145 -0.10381346 0.080096684 0.012012886 0.1272246
-0.0491227 -0.055260893 -0.07679629 -0.0010753855 -0.15244643 0.05608646 -0.18804659 0.07881542
0.10795398 -0.16627234 0.1028517 0.029283343 0.16154575 0.19130902 0.0316901 0.1690588
-0.07745733 0.109364025 -0.09587925 0.0866081 -0.27744558 0.0028634728 -0.021410666 0.13183545
-0.045086276 -0.23323917 -0.12573649 0.017615994 -0.12549827 -0.04241914 0.16015704 0.08317245
0.18163261 -0.23574524 0.0013231739 0.16881336 0.1308316 0.03538945 0.13927852 0.00532833
0.23108223 -0.10067872 0.05638125 0.063088164 0.083084814 0.03803498 -0.1285903 -0.01936726
-0.17075711 -0.04176645 0.0033925811 -0.02288255 -0.09413443 0.14205076 -0.007750008 0.23123792
0.16586743 -0.08266083 0.053786196 0.056062255 -0.005174203 0.10912554 0.1261151 -0.055927437
0.14185907 -0.034848306 -0.3309111 -0.1349994 0.071404755 0.027942311 0.20058623 0.029961273
-0.05164012 0.030311678 0.18178625 -0.0042731105 -0.040303003 -0.060510896 0.054685093 0.029801093
-0.26434815 -0.064867 -0.06525177 -0.0017396125 -0.055658616 -0.09644106 0.075744644 -0.0055417037
0.009604966 -0.10517503 -0.018734762 -0.24272993 -0.010342181 0.12722462 0.12996109 -0.1378465
-0.008561885 -0.054624587 -0.018140499 0.13376144 0.02067468 -0.06801605 -0.1526295 0.012228858
-0.067059174 -0.08566088 0.008727199 -0.0034742623 0.19124393 -0.11661006 0.017051224 0.082788736
0.038595222 -0.14732505 -0.15733756 0.044450466 -0.06458138 0.0027449015 0.10898001 0.061102327
0.11153642 0.060691636 0.03131404 -0.03402173 0.019298192 -0.28182605 0.017099515 -0.007542439
-0.093223 0.20626543 0.0003697803 0.20686825 -0.12017686 0.014299542 -0.03334897 -0.15513925
-0.04302522 -0.09078922 -0.07565387 -0.033621784 0.081488445 0.10140319 -0.14404427 0.06707547

2.bias f4 [300]
00000000: c484 c3bd d29d 57bd eb16 ae3d 7efe f53c
00000010: 2b48 4fbd 2342 d6ba 8021 443c f7c4 1e3d
00000020: 22b3 253d b673 86bc 9fc5 e73c 9465 66bc
00000030: 0574 0cbd 028b 28bc ae01 54bd 90b7 c63c
00000040: 9b0f 863d d947 e33c 2956 193d 1193 13bd
00000050: 83aa c4bd d876 84bd 76ed 4f3c 95df 7abc
00000060: d8f7 9dba 77cd 883b 1653 bcb9 5d21 433d
00000070: dda3 99bd ec83 833c 530c 58bd 9585 b13c
00000080: a600 973c 5071 46bd 9376 24bc d257 a3bc
00000090: 8a65 233d b5bb da3b cc0b d9bc 6f92 e53c
000000a0: f2be fe3c 7ab4 64bd 74a9 193d 6972 70bd
000000b0: 7f40 6d3c 1ae7 643b 0f4d 32bd bf95 35bc
000000c0: f1fd 603c e666 3fbc 5196 edbc ea4d 55bd
000000d0: f190 adbb 110f b7bc 172f b1bc d5a3 30bc
000000e0: ecc5 0cbd 6c01 d2bc ab5e 10bd 8dbc 15bc
000000f0: 5a1b 5a3d 541f 6d3d d840 bc3a 76ec 5a3c
00000100: 83fa 043c d806 273d 56a0 f2ba b79e 233d
00000110: 506b 0dbd 55a6 843b 563b 23bc a5de 3c3d
00000120: 9467 b1bc e83d 0d3d 031c 513d 0ea4 88bc
00000130: 4bfb 4e3c fa64 5e3c e589 e4bc 06e4 b2bd
00000140: 362a a4bd a5c1 edbc c9e0 3e3d 4f2b 193b
00000150: fd7c 06bd 37ab c43c b7b9 91bd 6ec9 5abd
00000160: c222 5b3c 5464 ddbc 4ed8 403c 852f 38bc
00000170: 21d1 ce3b cbc2 853c 7728 4ebd 00b2 aebc
00000180: 41b2 1f3c ec03 823d b2c9 113d d720 25bd
00000190: c062 963c 2b12 02bc a2c7 2a3c c572 293d
000001a0: bff8 553d 4e2b 7abd 8dcc 043d dd61 83bd
000001b0: 04eb 24bd 2ecc 7f3b c47e a6bc f43d 2abc
000001c0: 25a2 673d 9cc9 c2bb 5cfa 1e3d 2a4c acba
000001d0: e58b 393d fb5e c1bc b2fa 683d 57ff 36bd
000001e0: 59fb e2bc 420d d7bc 459a 4cbd d001 84bc
000001f0: 5aae d33c 45da 51bd 48a2 abbd 4cfb 65bd
00000200: a87e 533d fb15 3ebb 346a a0bd e658 74bc
00000210: 4237 2c3d 2a18 233d d8ab 623d ae0e b33a
00000220: d5f4 3cbd 2807 553c d2f2 d63c 19d8 4abd
00000230: f063 083d 508b 993c 25e2 ab3b 6bcf 883d
00000240: f81c 293d d00f 763c 60fa 993d d8bc 89bd
00000250: cc70 76bb 6bec 073d ddce 09bd 37b2 fd3a
00000260: 7ed6 143d 80c0 103d 0f49 a1bc ab9c 9b3c
00000270: e96e 8abd 388a d1bb 5652 e43a bd78 bdbb
00000280: 153d 193d c8c3 0f3b c8f7 d53c d168 11bd
00000290: a6a0 46bd 42e9 583c c8ca 49bb 9b6b 2bbd
000002a0: 53d4 fa3c 7f2b bc3c 2cfe 41bd daf3 0bbd
000002b0: a3ff 27bb 1b33 35bd 96a9 87bd c9b0 763d
000002c0: 139c 4bbc d816 d3bb 869b e2bc 48c1 f83c
000002d0: 9314 0f3b e663 babd 7f0e d83b 844f 17bd
000002e0: 4fbd 193d f7e7 5b3c c8a7 efbc a46e 94bc
000002f0: 21c1 0d3c a7d5 5a3c b97f 2bbd 72ca 1dbc
00000300: 1b1c d73c f3e0 7fbd 6b18 7c3d e8c9 f73b
00000310: 7445 5a3d 71fd 0bbd c851 75bc e8fa 3a3d
00000320: b707 64bd 590f b4bc a2d5 7dbc 785d bd3c
00000330: c13c e23a 615b 1bbb 604e d63c 0b98 9fbd
00000340: 453f 3c3d 39ef 89bc 3b3e 923c 3340 46bd
00000350: 3aa7 0fbd 6166 a63b 3e80 b83d b1b7 51bc
00000360: a6cc 5b3a a6d4 0a3d 8378 fabc 8f98 393d
00000370: a312 0ebd 48f7 2e3d 2726 9dbc 7c0d 863c
00000380: d6bc 91bd 51bf 51bc df5f 8bbc a371 043d
00000390: ded7 8ebb 684e 96bd c5e9 26bd f3e0 a4bd
000003a0: 2048 503d 91b6 063d 80b6 c23a 0ad6 253b
000003b0: 14ba fcbc 9374 ef3c db5f 923c 88a0 a33c
000003c0: a9b2 a9bc 4f5e 3e3d 3582 2a3c 03c5 173d
000003d0: 1d7e 56bc bf9c 5d3c 1b1c ddbd 7772 ff3b
000003e0: a9da 873d 02e1 95bc b3e4 0dbd 7574 e73c
000003f0: 0aa4 ba3d 0f62 4cbc 11ae 2e3a 8103 843c
-0.095468074 -0.052640744 0.08500465 0.030028578 -0.050605934 -0.0016346615 0.011970878 0.03876206
0.040454037 -0.016412597 0.028292475 -0.014062304 -0.034290332 -0.010287048 -0.051759414 0.024257451
0.06545945 0.02774422 0.037435684 -0.036028925 -0.09602835 -0.0646798 0.012690892 -0.015312095
-0.0012052013 0.004174884 -0.00035920058 0.04763924 -0.075019576 0.016054116 -0.05274613 0.021670142
0.018432926 -0.048447907 -0.010038036 -0.019939337 0.039891757 0.0066752085 -0.026494883 0.028023927
0.03109691 -0.05583618 0.03751512 -0.05870286 0.014480709 0.0034927786 -0.04353052 -0.0110830655
0.013732419 -0.011682248 -0.02900234 -0.052076258 -0.0052968194 -0.022346051 -0.0216289 -0.010781248
-0.03436844 -0.025635444 -0.035246532 -0.009139192 0.05324874 0.057891205 0.0014362587 0.013362041
0.008116367 0.04077801 -0.0018510919 0.039946284 -0.03452617 0.0040481486 -0.009962877 0.046110768
-0.021655835 0.034482867 0.051052105 -0.01667979 0.012633155 0.013573879 -0.027897784 -0.08734898
-0.080158636 -0.029023001 0.04660109 0.0023371761 -0.032834042 0.024007423 -0.071155004 -0.053414755
0.013374986 -0.02702538 0.011770321 -0.011241798 0.006311551 0.016328236 -0.05033156 -0.021325111
0.009747089 0.06348404 0.035592742 -0.04031452 0.018357635 -0.007938902 0.010423573 0.04136922
0.052239176 -0.061076455 0.032421637 -0.0641515 -0.04026319 0.0039031613 -0.020324118 -0.010390747
0.056551117 -0.005944444 0.03881298 -0.0013145257 0.04529943 -0.02360486 0.056879707 -0.044677105
-0.027707743 -0.026251439 -0.04995181 -0.016114146 0.025839973 -0.05123355 -0.08380562 -0.05614786
0.05163446 -0.00290048 -0.07832757 -0.014913773 0.042044885 0.039817967 0.055339664 0.0013660991
-0.046131928 0.013002194 0.026238833 -0.049522493 0.033298433 0.018743187 0.0052454644 0.06680187
0.041287392 0.015018418 0.07518458 -0.06725472 -0.0037603853 0.03318445 -0.033644546 0.001935548
0.03633737 0.035339832 -0.019688157 0.018995604 -0.06759436 -0.006394651 0.0017419558 -0.0057822154
0.037411768 0.0021936763 0.026119128 -0.03550035 -0.04849305 0.013239207 -0.0030791033 -0.041850667
0.030618822 0.02296996 -0.047361538 -0.0341681 -0.002563455 -0.04423819 -0.06624143 0.06022719
-0.012427348 -0.006441932 -0.02766205 0.030365601 0.0021832332 -0.09101085 0.006593525 -0.036941066
0.037534054 0.013422004 -0.029254809 -0.018119164 0.008652003 0.013356603 -0.041869853 -0.009630786
0.026258519 -0.062470388 0.061546724 0.007561911 0.053288892 -0.034177247 -0.014973111 0.04564944
-0.05567142 -0.021979975 -0.015492829 0.023115858 0.0017260538 -0.002370559 0.026160419 -0.07792672
0.045958776 -0.016837703 0.01785194 -0.04840107 -0.03507159 0.0050781225 0.09008835 -0.012800143
0.0008384682 0.033894204 -0.030575043 0.045311507 -0.034685742 0.042716295 -0.019183232 0.016363852
-0.07116096 -0.012801961 -0.017013488 0.032334935 -0.0043592295 -0.073391736 -0.040750284 -0.08050718
0.050850034 0.032888953 0.0014855415 0.002530458 -0.030850448 0.029230392 0.017867973 0.019974008
-0.020715075 0.04647666 0.01040702 0.03705312 -0.013091591 0.013526141 -0.10796376 0.0077956277
0.06633503 -0.018295769 -0.034641933 0.028253773 0.09113319 -0.012474551 0.0006663511 0.016114952

4.weight f4 [4, 300]
00000000: b53a c23e c3fc f83d b855 293d 24b6 fcbe
00000010: 5cb4 813b 8ef3 3dbe 98de de3e 447b 763e
00000020: 36e5 913e 8e2e cebb feb0 3abe 8a30 18be
00000030: 7a24 3abc 41e7 c43b c364 0dbe 34c3 a63e
00000040: 0731 0a3e 3e31 c73d a776 14be 4e04 003e
00000050: 36df 92be a009 5bbe 0c59 2bbe 0fc9 553e
00000060: 0bc3 05be e698 9c3e 3503 e7be 6507 c03e
00000070: ad44 f9bc 3339 94bd 73a6 01be efd5 753d
00000080: 223e 9a3e 10b8 74be 3b33 96be 8db6 2d3b
00000090: 1a66 86be a90f bcbe f3c9 88bd 6b0f c337
000000a0: 22e9 103d d27c f73c 93d1 7abd ea39 923e
000000b0: fdc3 bc3d 93ce f5bd 954d e93e 4562 de3e
000000c0: b4b9 c3bc 1551 4e3e 28e4 493e a47a 3ebe
000000d0: f272 37be 1ede 2dbe dac5 603e a961 ddbd
000000e0: 2c81 813c ec6e a43e af68 cc3d e807 08be
000000f0: 1039 88be c5a9 85be 1a1a 09bd 81c2 9fbc
00000100: 0999 0bbe 3022 58be 0c7f ab3d bad1 51be
00000110: 22de 8a3e 7867 0b3e 4ec0 313e 47fa 38bd
00000120: 7950 2e3e ba8f 233e cf7e abbe 60b2 113e
00000130: a4af 00be 84a1 6d3e 2161 7c3e 989c 0a3d
00000140: 83c5 a03e f45d 4a3e 2a17 e73e 9605 a33d
00000150: 21cd 623e 1bc4 85be fb80 993c 7f63 7fbe
00000160: 0cad 92bd f1de 39be a532 453e d123 84bd
00000170: 070d e23e e549 bdbd 26f5 b53d e10c c9bb
00000180: 9eea a2be 489a 70bd 8b8a 2a3e cce9 bd3e
00000190: ed5c 2cbe b221 cabe e681 d73d 6822 47be
000001a0: a098 41be 0ff4 7f3e b205 8dbc 4657 32be
000001b0: 0e15 96be 4ed3 16be 771c 773e fc90 393e
000001c0: a054 62be c229 853e 1e58 89be d137 9f3c
000001d0: 3af0 a53d 05ee 283e b44b ce3c 532c 7d3e
000001e0: b707 893e 3c05 573e 7380 5e3e 9dd1 2a3e
000001f0: 78dc 903d dd1a d4bd 90e2 363e 9518 413e
00000200: 9ca2 22be 0df4 353e 0efb 203e 30d6 443e
00000210: cdae fcbd 4352 c8bd 7b38 d0bc 4b38 2b3d
00000220: 17f3 c1bd 3331 ac3d a617 463e 581d 223c
00000230: 1703 f6bd 46db a83e 8185 2fbe 15d6 cb3d
00000240: bf9d a43b 1e62 4fbe 851c f7bd a5da 093e
00000250: 5e43 51be 6e05 e8bc 4359 6dbc 5fd1 53be
00000260: a3cb edbc 4458 573d 52b9 403e 9d6e eb3d
00000270: 7b91 663e 9ce4 0dbf e663 323e 9997 4cbe
00000280: 5933 06be a50c 20bd 06c9 d7be 08ea c03d
00000290: cdee db3d 589a a7bd b02f 62be 1ea9 b43e
000002a0: f4c5 993e 8e60 e13e 6720 673d 9d8c 22be
000002b0: 34ac 6dbe 1db0 723d d3e0 573e c984 673e
000002c0: 7ad1 81bd fc0b 20be 6181 90be f123 c9bd
000002d0: 6050 67bd d0d6 06be 9150 dd3e b919 9f3b
000002e0: e78b f23e fb9a d33d 4e8d a1be b5f3 1a3e
000002f0: 82a4 34bd 1504 9e3e 7732 73be b060 8dbe
00000300: d418 8dbe a6f4 48be cfb8 46bc feff 7e3e
00000310: c977 103d cc01 35be 9e07 e9be 9328 60bd
00000320: 6a8d 573e a9c6 a13e 4a8c ccbd 46a1 113e
00000330: ae27 9cbd 5f2f 4dbe 183b 813e d00a 3f3e
00000340: ab6a 03be b48b 203d a558 77be 2659 22be
00000350: 8a24 24be cb14 3abe 7607 17be f785 d5bc
00000360: ad22 68be 2ab9 9e3e 23af 7ebe 3a3d 00be
00000370: c741 283c 45f7 15bd 54af 64be 8a6a b0bd
00000380: a2c4 3b3d 4811 84bd e721 c3bc f3df 703e
00000390: 8e83 b03c f36b 093e 0018 3ebd 0696 053f
000003a0: ffbf 3a3e 332f d3bd 35ee 9b3e 74d0 17be
000003b0: 0399 a5bd b5bc 08bd 29fb 02be 9157 a43d
000003c0: 4004 d0be 469f 7d3d 188d 153e 3196 413c
000003d0: 81d7 193f a7b0 2cbd d348 043e ae49 153f
000003e0: 446e 173e 71e6 6ebe 7f0e da3d 67bb 4fbe
000003f0: 2369 0bbd a595 9a3e 5699 59bd 2fab b6bd
0.37935415 0.121575855 0.041341513 -0.49357712 0.003958268 -0.1854994 0.435292 0.2407046
0.28495187 -0.006292171 -0.1823158 -0.14862266 -0.011361236 0.006009013 -0.13807969 0.32570803
0.13495265 0.09726189 -0.14498387 0.12501642 -0.2868592 -0.2139039 -0.16733187 0.20877479
-0.13062684 0.30585402 -0.45119634 0.37505642 -0.030428255 -0.072374724 -0.12661152 0.060018476
0.3012553 -0.2389834 -0.2933596 0.0026506514 -0.26249772 -0.36730698 -0.06679144 2.3252991e-05
0.035378583 0.030210886 -0.06123502 0.2855981 0.09217069 -0.120022915 0.45567003 0.4343435
-0.023892261 0.20148118 0.19715941 -0.18601471 -0.17914942 -0.16979262 0.21950474 -0.10809643
0.015808664 0.32115877 0.09980904 -0.13284266 -0.26606035 -0.26106086 -0.033472158 -0.019501926
-0.13632597 -0.21106791 0.08373842 -0.2049016 0.271226 0.13613689 0.17358515 -0.045160558
0.17022885 0.15972796 -0.33495185 0.14228201 -0.12567002 0.23206145 0.24646427 0.033840746
0.3140069 0.19762403 0.4513486 0.0796005 0.22148563 -0.2612618 0.01873826 -0.24940298
-0.07161912 -0.18151452 0.192576 -0.06452144 0.44150564 -0.0924261 0.08884649 -0.0061355685
-0.31819624 -0.058740884 0.16654412 0.37092435 -0.16832323 -0.39478832 0.10522823 -0.19446719
-0.18905878 0.24995445 -0.01721463 -0.17416105 -0.29312938 -0.14729044 0.24131952 0.18121713
-0.22102594 0.2600842 -0.2682504 0.019435795 0.0810246 0.16497047 0.025182582 0.2472394
0.26763698 0.2099809 0.21728687 0.16681524 0.07073301 -0.10356686 0.17859864 0.18857034
-0.15882343 0.17768879 0.1572077 0.19222331 -0.12338028 -0.09781315 -0.025417557 0.041801732
-0.09470194 0.084078215 0.19344959 0.009894691 -0.12012308 0.32979792 -0.17140771 0.09952942
0.0050236876 -0.20252272 -0.120659865 0.13462313 -0.20435855 -0.028322902 -0.014486614 -0.20685337
-0.029027766 0.05257441 0.18820694 0.11495707 0.22516434 -0.55426955 0.1742092 -0.19979705
-0.13105525 -0.03907456 -0.42145556 0.09419638 0.10738907 -0.081837356 -0.22088504 0.35285276
0.3003384 0.44018978 0.056427386 -0.15873952 -0.23210222 0.059249986 0.21081857 0.22609247
-0.063387826 -0.15629572 -0.28223708 -0.098213084 -0.056473136 -0.13167882 0.4322553 0.0048553613
0.47372362 0.103322946 -0.3155312 0.1513203 -0.0441022 0.3086249 -0.2374972 -0.2761283
-0.27558005 -0.19624576 -0.012129023 0.24902341 0.035270486 -0.17676467 -0.45513624 -0.054726195
0.21050039 0.31596878 -0.099876955 0.14221677 -0.07624756 -0.20037602 0.25240397 0.18656468
-0.1283366 0.03919573 -0.24154909 -0.1585432 -0.16029564 -0.18171994 -0.1474894 -0.026064856
-0.22669478 0.31000644 -0.24871497 -0.12523356 0.010269589 -0.036612768 -0.22332507 -0.08614071
0.04584182 -0.06448609 -0.023819877 0.2352293 0.021547105 0.13420086 -0.046409607 0.5218204
0.18237303 -0.10311737 0.30455175 -0.14825612 -0.08085825 -0.03338309 -0.12791122 0.080245145
-0.40628242 0.061919473 0.14604604 0.011815594 0.6009446 -0.042160656 0.12918405 0.5831555
0.14788157 -0.23330094 0.10647296 -0.20286332 -0.034035813 0.30192295 -0.05312475 -0.089193694

4.bias f4 [4]
00000000: 7dfd c0bc 6741 3dbd 7b6f 14bd 00fa 2dbd
-0.023558373 -0.04620495 -0.03623913 -0.042474747
