actor_checkpoint_score_18.pth (torch_old, 541467 bytes, 6 tensors)

0.weight f4 [400, 33]
0	0x3b06ac81	0.0020549598
1	0xbe863cb0	-0.26218176
2	0x3dce02f4	0.10059157
3	0x3dbf2fb8	0.093352735
4	0x3f7145f8	0.9424739
5	0x3db92003	0.09039309
6	0xbe16d0ab	-0.14728038
7	0x3c8fd76b	0.017558774
8	0xbcc92b4d	-0.02455678
9	0xbe6f5d63	-0.23375468
10	0x3dcba173	0.09942903
11	0xbcbff16d	-0.02343055
12	0x3c5681b0	0.013092443
13	0xbca63de2	-0.02029318
14	0x3dc53d39	0.09630818
15	0x3cdd3411	0.027002366
16	0x3da74d77	0.08169072
17	0x3f984411	1.1895772
18	0x3d8c0c1d	0.06838248
19	0xbf5c7cfc	-0.8612821
20	0xbcb9efe1	-0.022697391
21	0x3dad8799	0.08473129
22	0x3d137f22	0.036009915
23	0x3cea32f4	0.02858875
24	0xbdaf761c	-0.085674495
25	0xbc564f7e	-0.013080476
26	0x3e1725eb	0.14760558
27	0xbd2b8ba5	-0.041881222
28	0xbe8a5d25	-0.2702419
29	0xbcca3f78	-0.024688467
30	0x3d5d9337	0.054095473
31	0x3e16b442	0.147172
32	0x3f8671fa	1.0503533
33	0xbe91e264	-0.28493035
34	0x3eaa8535	0.33304754
35	0x3d0840ba	0.033264853
36	0x3f15c2f3	0.58500594
37	0xbe2070b4	-0.15667993
38	0xbdc9f3c7	-0.0986095
39	0xbe995e8b	-0.29954943
40	0x3e38603f	0.18005465
41	0x3f0cedf0	0.55050564
42	0x3e3e4422	0.18580678
43	0x3df411dd	0.1191747
44	0x3eca5d92	0.39524513
45	0xbd24e749	-0.040259633
46	0x3e4f0960	0.2021842
47	0xbe80a90e	-0.25128978
48	0xbd391726	-0.04518809
49	0x3e8eaf94	0.2786833
50	0x3e256b22	0.16154149
51	0x3f6527f7	0.89514107
52	0xbebe9503	-0.37223062
53	0xbe4ee617	-0.2020496
54	0xbe674bd3	-0.22587518
55	0xbe8d3d52	-0.27585846
56	0x3d266c4c	0.040630624
57	0xbeac7890	-0.33685732
58	0xbcf1b623	-0.029505795
59	0x3e25de4f	0.16198085
60	0x3f0ec3f0	0.55767727
61	0x3d07e5f9	0.033178303
62	0xbdc8d16e	-0.098055705
63	0xbf01c0e8	-0.50684977
64	0xbdd87da6	-0.105708405
65	0xbdc89642	-0.097942844
66	0x3e98e704	0.2986375
67	0xbeb77bec	-0.35836732
68	0x3e25c41c	0.16188091
69	0x3f21d83f	0.6322059
70	0xbeb6ee55	-0.35728708
71	0x3e3a662a	0.18203035
72	0xbe9bc302	-0.30422217
73	0xbd8dc11f	-0.069216006
74	0x3e6c3205	0.23065956
75	0x3eb444e8	0.3520882
76	0xbde05b31	-0.109548934
77	0xbd9ece9a	-0.0775425
78	0xbc9050fb	-0.01761674
79	0xbee8e9fa	-0.4549101
80	0x3e0dd970	0.13852477
81	0xbeb68742	-0.3565007
82	0x3eb20f48	0.34777284
83	0x3e1189c2	0.14212707
84	0xbd845133	-0.064608
85	0xbdbd95fb	-0.09257122
86	0xbc8b27f2	-0.01698682
87	0x3af358da	0.0018565909
88	0x3d5e065b	0.05420528
89	0xbdb13fc8	-0.086547434
90	0xbc997ef3	-0.018737292
91	0xbd9ef0e9	-0.07760794
92	0x3e038883	0.12845044
93	0x3dabda9d	0.083913065
94	0x3ddfe03f	0.109314434
95	0x3e0e80a8	0.13916266
96	0x3e4d58b3	0.20053367
97	0x3dfd95a0	0.12382054
98	0xbf189507	-0.596024
99	0x3d5b7074	0.05357404
100	0x3ea2efda	0.31823617
101	0xbe7add25	-0.24498422
102	0xbe32fc7e	-0.1747913
103	0x3ee3bc54	0.4447962
104	0x3eb0dd7a	0.34543973
105	0xbe79de7c	-0.24401277
106	0xbeaf5d8e	-0.34251064
107	0xbe0fa7bd	-0.14028831
108	0x3e26e323	0.16297583
109	0x3e1e3ba2	0.15452436
110	0x3e1eb305	0.15497978
111	0xbe92baf9	-0.28658274
112	0xbe30bca2	-0.17259458
113	0x3eb0f703	0.34563455
114	0xbdcd6998	-0.10029906
115	0xbf7bbfc2	-0.98339474
116	0x3f111383	0.566704
117	0x3f24f14a	0.6443068
118	0x3e4abcc0	0.19798565
119	0xbd8ca0e8	-0.06866628
120	0x3e8f8480	0.28030777
121	0xbe1f1d41	-0.15538503
122	0xbd941a94	-0.07231632
123	0x3c7beb74	0.015375961
124	0x3e20d408	0.15705884
125	0xbc7e714a	-0.01552994
126	0x3ea2d499	0.31802824
127	0xbe21740c	-0.15766925
128	0xbe11f705	-0.14254387
129	0xbebffddb	-0.37498364
130	0x3e2a08cc	0.16604918
131	0x3e3f83a4	0.1870256
132	0x3e63c4aa	0.2224299
133	0x3e7338de	0.23752162
134	0x3ecb78e8	0.39740682
135	0xbf3fc847	-0.74914974
136	0x3e964dae	0.2935614
137	0x3ad9be84	0.0016612564
138	0x3ed86dbc	0.4227122
139	0xbd46f997	-0.04857787
140	0x3d9dced1	0.07705463
141	0x3dc0b8dc	0.09410259
142	0x3e9f3f4a	0.31102973
143	0xbca882e0	-0.020570219
144	0xbd9ff53e	-0.07810448
145	0x3d8a516a	0.0675381
146	0x3f3fa4ca	0.74860823
147	0x3e9c7d7b	0.30564484
148	0xbcaffadc	-0.021481924
149	0x3ea4e99c	0.3220948
150	0xbece06d2	-0.40239578
151	0x3edcc333	0.43117675
152	0x3e20e8e8	0.15713847
153	0xbd356a34	-0.044290736
154	0xbe8fb5bc	-0.2806834
155	0xbe1eb88a	-0.15500084
156	0x3e4ae645	0.19814403
157	0x3e21a148	0.1578418
158	0x3e697bbc	0.22801107
159	0x3e86e86b	0.26349196
160	0xbe5f6b37	-0.21818243
161	0x3e1f4c70	0.15556502
162	0xbeeabded	-0.45848027
163	0xbde1bab0	-0.11021936
164	0x3f9e18bd	1.23513
165	0x3e0cf140	0.13763905
166	0xbec89819	-0.3917854
167	0x3e986c42	0.29770094
168	0x3e72fb05	0.23728569
169	0x3e555e26	0.20836696
170	0x3e658a3f	0.22416018
171	0x3df1ecc8	0.118127406
172	0x3d585b7a	0.052821614
173	0x3d637204	0.055528656
174	0x3e4ff887	0.2030965
175	0xbcfbd6ed	-0.030742133
176	0xbe0e0317	-0.13868366
177	0xbd0b5994	-0.034020975
178	0x3e421c42	0.18956092
179	0x3ea1c1f9	0.31593302
180	0xbe161be7	-0.14659081
181	0x3e26c8a1	0.16287471
182	0xbe1b8d31	-0.15190579
183	0xbde3f909	-0.11131484
184	0xbdb40eb0	-0.08791864
185	0x3d6b2e3f	0.05741715
186	0x3cfa4b11	0.030553373
187	0x3e467f52	0.19384506
188	0x3dc5ef44	0.09664777
189	0x3e773f25	0.24145181
190	0x3db847ee	0.089980945
191	0xbe069759	-0.13143672
192	0xbeb18a19	-0.34675673
193	0xbde6e9d9	-0.11275072
194	0x3d47ec8c	0.048809573
195	0x3d1774c7	0.036976602
196	0xbdbd8461	-0.09253765
197	0x3f8ae376	1.0850666
198	0x3e487484	0.19575697
199	0x3e155611	0.14583613
200	0xbeab2a95	-0.33430925
201	0xbf6d5b75	-0.9271768
202	0x3de92c0f	0.11385357
203	0xbfbec67a	-1.490432
204	0x3f58416a	0.84474814
205	0xbd4efd9c	-0.05053483
206	0x3e6f85f0	0.23390937
207	0xbe397db5	-0.1811436
208	0xbd4b2bf1	-0.049602453
209	0x3e0674b7	0.1313046
210	0xbdbc693a	-0.09199758
211	0xbc5c4dbe	-0.01344627
212	0x3dc81348	0.097693026
213	0x3e698dad	0.22807951
214	0x3d9f08a6	0.077653214
215	0xbf35b9ea	-0.7098681
216	0xbd8708f4	-0.065935045
217	0xbded2abb	-0.11580416
218	0x3e558545	0.2085162
219	0x3e4b0176	0.19824776
220	0x3d3ef700	0.046622276
221	0xbe15f3ce	-0.14643785
222	0x3d4f5d02	0.05062581
223	0xbe4ad15c	-0.19806427
224	0x3e01fe76	0.12694725
225	0x3ddb29b8	0.107013166
226	0x3d4c8d77	0.0499396
227	0x3e1e0890	0.15432954
228	0xbed67dc9	-0.4189284
229	0x39ef0800	0.00045591593
230	0xbf5e0451	-0.86725336
231	0x3d41e8a9	0.047341023
232	0x3f44d637	0.76889366
233	0x3d5cd341	0.053912405
234	0xbed005f5	-0.40629545
235	0xbea98a51	-0.3311334
236	0x3f2d84cd	0.6778076
237	0x39cd691e	0.00039178965
238	0xbe94df21	-0.29076484
239	0x3e230314	0.15919143
240	0x3e8ff792	0.2811857
241	0x3e15bdb4	0.14623147
242	0xbda62072	-0.08111657
243	0x391a73b2	0.00014729684
244	0xbd8613d9	-0.065467544
245	0x3ec6fdd0	0.3886552
246	0xbea223aa	-0.31667835
247	0x3f6ff522	0.9373342
248	0x3ee0208e	0.43774837
249	0x3b6b472b	0.0035900574
250	0x3ea2b387	0.31777593
251	0xbd8ea53a	-0.06965108
252	0x3e137fc8	0.14404213
253	0xbe344e7c	-0.17608064
254	0xbe4f118c	-0.20221537
255	0xbd0c0b51	-0.03419048

0.bias f4 [400]
0	0xbddac378	-0.10681814
1	0xbed6b68a	-0.4193614
2	0x3e492635	0.19643481
3	0xbe830dc5	-0.25596443
4	0xbeea5c5e	-0.45773596
5	0x3d1f5cb3	0.038906764
6	0xbebe4763	-0.3716384
7	0xbec08588	-0.37601876
8	0xbeb41b02	-0.35176855
9	0x3e5aac72	0.21354845
10	0xbf0c2d99	-0.54757077
11	0xbc072597	-0.008248708
12	0xbf0768e1	-0.5289441
13	0xbe07ba18	-0.13254583
14	0xbe958555	-0.29203287
15	0xbe4a9559	-0.19783534
16	0xbebae0ef	-0.36499736
17	0xbe2a80a8	-0.16650641
18	0xbeadc411	-0.3393865
19	0xbeeb0ec6	-0.4590971
20	0xbdc4e701	-0.09614373
21	0xbec4b9a9	-0.38422897
22	0xbedbfacf	-0.4296479
23	0x3c814917	0.015781922
24	0xbe041fa8	-0.12902701
25	0xbec60fe6	-0.38684005
26	0xbe34def2	-0.17663172
27	0xbe307db2	-0.17235449
28	0x3d4fb700	0.05071163
29	0xbe129405	-0.14314277
30	0xbe85ed4c	-0.26157606
31	0x3dd87fcf	0.105712526
32	0xbe1431b2	-0.14472082
33	0xbe279b25	-0.16367777
34	0xbdac2a42	-0.084064975
35	0xbeaa267a	-0.3323248
36	0xbe2740c6	-0.16333303
37	0xbedd0c96	-0.43173665
38	0x3e150e02	0.14556125
39	0xbef6b20a	-0.48182708
40	0x3d9510d0	0.07278597
41	0xbd777ecd	-0.06042366
42	0xbe7dbafa	-0.24778357
43	0xbe901a15	-0.281449
44	0x3da41682	0.080121055
45	0x3e1fde76	0.15612206
46	0xbcad8b2c	-0.021184526
47	0x3d2a7b37	0.041621413
48	0xbea0edfe	-0.31431574
49	0xbe015f11	-0.12633921
50	0xbe77981f	-0.24179123
51	0xbe70f885	-0.23532303
52	0xbebb016f	-0.3652453
53	0xbd90f2b0	-0.07077539
54	0x3e5a4de6	0.21318778
55	0x3cba3492	0.022730146
56	0xbdc92f98	-0.09823531
57	0xbe4f2a46	-0.2023097
58	0xbe47a5be	-0.1949682
59	0xbe321f92	-0.17394856
60	0xbe8e7da3	-0.27830228
61	0xbd2a3c53	-0.041561436
62	0xbe117c32	-0.14207533
63	0xbe9d9b68	-0.30782628
64	0xbe2be252	-0.16785553
65	0xbdf3eb50	-0.11910117
66	0xbee50ede	-0.44737905
67	0xbde04c49	-0.1095205
68	0xbed685c9	-0.41898945
69	0xbeead617	-0.45866463
70	0xbeb4509c	-0.3521775
71	0xbef765a7	-0.48319742
72	0xbe3099c3	-0.17246155
73	0xbea4653b	-0.32108483
74	0xbecc4aeb	-0.39900908
75	0xbe9d72c2	-0.30751616
76	0xbe775f56	-0.24157462
77	0xbd7654c0	-0.060139418
78	0xbddf389a	-0.10899468
79	0xbe9b4479	-0.30325678
80	0xbe84119c	-0.25794685
81	0xbe91c43f	-0.28470036
82	0x3d0067ea	0.0313491
83	0xbe973082	-0.29529196
84	0xbed4be3b	-0.41551384
85	0xbebf3f62	-0.37353045
86	0xbe306300	-0.17225266
87	0xbe29851f	-0.16554688
88	0xbe412ced	-0.18864794
89	0xbea3c682	-0.31987387
90	0xbebe6790	-0.37188387
91	0x3dd195f8	0.102336824
92	0xbe41bc38	-0.18919456
93	0xbde9f436	-0.11423533
94	0xbe38a1d2	-0.1803048
95	0xbe4f6629	-0.20253815
96	0xbe812bb0	-0.25228643
97	0xbeb2eff9	-0.3494871
98	0xbdc3d1d5	-0.09561507
99	0xbf0365af	-0.5132703
100	0xbee55c5c	-0.44797027
101	0x3c956a41	0.018239142
102	0x3d1ab8d0	0.037773907
103	0xbd94acc3	-0.07259514
104	0xbe6f3577	-0.23360239
105	0xbd871dd2	-0.06597485
106	0xbec56e62	-0.38560778
107	0x3e582c6f	0.211107
108	0x3c3382c8	0.010956474
109	0xbde56638	-0.11201137
110	0xbe2d54c7	-0.16926871
111	0xbf00800e	-0.50195396
112	0xbe5c959d	-0.21541448
113	0x3e09b30d	0.13447209
114	0x3da61074	0.08108607
115	0xbed73697	-0.42033836
116	0xbe0936d0	-0.13399816
117	0xbe7881c1	-0.24268247
118	0x3ddee8c8	0.10884243
119	0xbe617467	-0.2201706
120	0x3de702c7	0.112798266
121	0xbed47041	-0.41491893
122	0xbd847825	-0.06468228
123	0xbe87f4ea	-0.26554042
124	0xbe67ab06	-0.22623834
125	0xbe1f66f0	-0.15566611
126	0xbdf15342	-0.11783458
127	0xbd29f400	-0.041492462
128	0xbe4ee226	-0.20203456
129	0x3e7267b0	0.23672366
130	0xbeb6dc34	-0.35714877
131	0xbd8c88f1	-0.06862057
132	0xbd04c830	-0.032417476
133	0xbec1255a	-0.3772381
134	0xbda6522c	-0.08121142
135	0xbe9d645a	-0.30740625
136	0xbe18bfb2	-0.14916876
137	0xbea5a8d4	-0.32355368
138	0xbe16c54c	-0.147237
139	0xbe930308	-0.2871325
140	0x3e2cfa9f	0.1689248
141	0x3debecf6	0.11519806
142	0xbe5a9ffc	-0.21350092
143	0xbef1dd60	-0.47239208
144	0xbcf824d8	-0.030291006
145	0xbe840f02	-0.257927
146	0x3de7fc19	0.11327381
147	0xbba843d8	-0.0051350407
148	0xbdbd5a14	-0.09245697
149	0xbf0b962a	-0.5452601
150	0xbe84c861	-0.25934127
151	0xba2bdb88	-0.0006555845
152	0xbe8cc82f	-0.27496478
153	0xbd8c832b	-0.06860956
154	0x3efe2575	0.49637952
155	0xbef6a023	-0.4816905
156	0xbe9dc6fb	-0.30815873
157	0xbecc6a74	-0.39924967
158	0xbe6819f3	-0.22666149
159	0xbec6aec1	-0.38805202
160	0xbdc1e1c2	-0.09466888
161	0xbe2ed83f	-0.17074679
162	0x3ca0d8f0	0.019634694
163	0x3e3d2b71	0.18473603
164	0xbe4a132f	-0.1973388
165	0xbec642fd	-0.38722983
166	0xbec6a42b	-0.38797125
167	0xbe5dea97	-0.2167152
168	0xbec9c28d	-0.39406243
169	0xbdad274d	-0.08454762
170	0xbe864a26	-0.26228446
171	0xbec34cad	-0.38144436
172	0xbebb2f3d	-0.36559477
173	0xbe3685eb	-0.17824523
174	0xbe31e9e4	-0.17374378
175	0xbdc37e5b	-0.09545585
176	0xbea6cd30	-0.3257842
177	0xbe8db6ab	-0.27678427
178	0xbe89ec73	-0.2693821
179	0xbe4756bf	-0.19466685
180	0xbe7a0d8c	-0.2441923
181	0xbe55e0bf	-0.20886515
182	0xbeefe9d6	-0.4685809
183	0xbdfe047b	-0.12403198
184	0xbecacfe6	-0.3961174
185	0xbee57b05	-0.4482042
186	0xbccc1218	-0.024910972
187	0xbe83938f	-0.25698516
188	0xba885a10	-0.0010402817
189	0xbde8b654	-0.11362901
190	0xbe7265be	-0.23671624
191	0x3a1ee9bb	0.000606205
192	0xbdbd9190	-0.092562795
193	0xbe964999	-0.29353026
194	0xbe96c0c2	-0.29443938
195	0xbea02366	-0.31277007
196	0xbeae616d	-0.34058705
197	0xbe1661ce	-0.14685747
198	0xbe32df96	-0.17468104
199	0xbf22ad6e	-0.6354588
200	0xbed55e89	-0.41673687
201	0xbc446b0c	-0.011988413
202	0xbee04030	-0.4379897
203	0xbe54a674	-0.20766622
204	0xbed12ab3	-0.4085289
205	0xbdf00aa2	-0.11720778
206	0xbe1548c2	-0.14578536
207	0x3de2b3da	0.1106946
208	0xbe5cc069	-0.21557774
209	0x3e871670	0.26384306
210	0xbe3707ba	-0.17874041
211	0xbd33a45f	-0.04385793
212	0x3d5df305	0.05418684
213	0xbed8f873	-0.42377052
214	0xbdd56a8b	-0.10420712
215	0xbea43db6	-0.32078332
216	0xbe5bbc09	-0.21458448
217	0xbed739a6	-0.4203617
218	0x3e20e50f	0.15712379
219	0x3be4ae32	0.0069787735
220	0xbdae218b	-0.085024916
221	0xbf07b961	-0.5301724
222	0xbe3a3139	-0.1818284
223	0x3c3625e1	0.0111174295
224	0xbede489d	-0.43414775
225	0xbe68e215	-0.22742493
226	0xbeb5d244	-0.35511982
227	0xbea519e0	-0.32246304
228	0xbea5c22f	-0.32374713
229	0xbe6e73a8	-0.23286307
230	0xbd45ddb1	-0.048307125
231	0xbefdb1ba	-0.49549657
232	0xbed4a57e	-0.4153251
233	0xbd835fc4	-0.0641475
234	0xbe59ac73	-0.2125719
235	0xbeca5da0	-0.39524555
236	0xbe8ec4c1	-0.27884486
237	0x3d23e697	0.04001483
238	0x3e083441	0.13301183
239	0xbed66b3d	-0.4187869
240	0x3dcfc6aa	0.10145314
241	0x3e3cb4db	0.18428366
242	0xbea938ee	-0.33051246
243	0xbe6743b3	-0.22584419
244	0xbe8b57c9	-0.27215412
245	0xbe39cbd2	-0.18144158
246	0xbe95e1a2	-0.29273707
247	0x3d87878f	0.066176526
248	0xbcb09ea9	-0.02156003
249	0x3dee1351	0.11624778
250	0xbe23ffe3	-0.16015582
251	0xbdf5275d	-0.119703986
252	0xbe61ed34	-0.22063142
253	0xbe117d7f	-0.14208029
254	0xbe0a7f95	-0.13525231
255	0xbdc6ec4a	-0.09713037

2.weight f4 [300, 400]
0	0x3e10a1dd	0.14124246
1	0xbea071c8	-0.31336808
2	0x3d41738b	0.04722933
3	0xbe0bc185	-0.1364804
4	0xbd7fca90	-0.062449038
5	0x3c88b955	0.016689936
6	0x3e105a43	0.14096932
7	0x3eafa904	0.34308636
8	0xbda65de8	-0.0812338
9	0xbdbaed96	-0.09127347
10	0x3c8a18fe	0.01685762
11	0xbec3710f	-0.38172194
12	0x3f07ccc8	0.53046846
13	0x3dca8f37	0.09890597
14	0x3e12655c	0.14296478
15	0xbe9553bb	-0.29165444
16	0xbec05af5	-0.37569395
17	0x3d98f67f	0.074688904
18	0xbea8201e	-0.32837003
19	0xbdb86675	-0.09003917
20	0xbe4da37c	-0.20081896
21	0x3daf4a2e	0.085590705
22	0x3e02451f	0.1272168
23	0x3e66c9bc	0.22537893
24	0xbe1253c8	-0.14289773
25	0x3e854511	0.26029256
26	0x3e42ae1b	0.19011728
27	0xbdaf8997	-0.08571165
28	0x3d5b5a5e	0.053552978
29	0xbe7f2984	-0.2491818
30	0x3e873627	0.26408502
31	0x3e1dcf8f	0.15411209
32	0x3c6a3fa9	0.014297404
33	0xbb30f4e8	-0.0027001444
34	0x3d6ad9c0	0.05733657
35	0xbdc311bd	-0.09524868
36	0xbed9b390	-0.42519808
37	0xbdc0defe	-0.094175324
38	0xbecc1ea7	-0.39867136
39	0xbc1517b2	-0.009099888
40	0xbb610f5b	-0.0034341428
41	0xbe41aed1	-0.18914343
42	0xbeec7e1b	-0.4618996
43	0xbd74772d	-0.059683967
44	0xbe25be7e	-0.16185948
45	0xbeabd1e7	-0.3355858
46	0xbe92fb69	-0.28707436
47	0x3dc28d15	0.094995655
48	0x3c8cde83	0.017195946
49	0x3dbb3d12	0.091425076
50	0xbe5c0bab	-0.21488826
51	0x3e0a47bc	0.13503927
52	0x3d917df7	0.07104104
53	0xbe5a2252	-0.21302155
54	0x3e1e00ab	0.15429942
55	0xbc2b0a42	-0.010439457
56	0x3d9d58da	0.07682963
57	0xbe2d79d1	-0.16941
58	0xbe8ca0ab	-0.2746633
59	0xbe94c5ce	-0.29057163
60	0x3e427333	0.18989258
61	0xbca0d1e3	-0.019631332
62	0xbcee8ac2	-0.0291189
63	0x3e6b6343	0.22987084
64	0xbe21afdb	-0.1578974
65	0xbd8033b4	-0.062598616
66	0x3ea4749d	0.3212022
67	0xbd9675e6	-0.07346706
68	0xbed93ea4	-0.42430604
69	0x3c3e6bc3	0.011622372
70	0x3df5ec43	0.12007954
71	0x3e95b609	0.29240444
72	0x3d91a911	0.07112325
73	0xbdcb26d2	-0.09919514
74	0xbe052fa3	-0.13006453
75	0x3e00941a	0.12556496
76	0x3d25e6b3	0.040503215
77	0x3e15e24a	0.14637104
78	0x3df8591d	0.12126372
79	0xbe06d3ee	-0.13166782
80	0xbe00fdec	-0.12596864
81	0xbcd10c30	-0.025518507
82	0xbe1cbbe0	-0.15306044
83	0xbe3a4b33	-0.18192749
84	0xbea285e3	-0.31742772
85	0x3ec26445	0.37967125
86	0xbdd58d67	-0.10427361
87	0x3dc77640	0.09739351
88	0xbf0ae2e5	-0.54252464
89	0xbe8c55cc	-0.27409208
90	0xb98bb93e	-0.00026650162
91	0xbe2f418c	-0.17114848
92	0xbe4f3a43	-0.20237069
93	0x3e13441a	0.14381447
94	0xbdd4aa26	-0.10384016
95	0xbdbbf9ae	-0.09178482
96	0x3d6614e3	0.056172263
97	0xbf02b759	-0.51061016
98	0xbe2cdaf6	-0.16880402
99	0xbe2dca73	-0.1697176
100	0x3ccdca63	0.02512092
101	0xbede49a4	-0.43415558
102	0x3e3a7ae7	0.18210946
103	0xbaad6708	-0.0013229558
104	0xbf2a4d84	-0.6652453
105	0x3cd981ad	0.026551092
106	0xbe0f55ce	-0.13997576
107	0xbdff8b7d	-0.12477777
108	0xbd40340a	-0.04692463
109	0x3e37b0a8	0.17938483
110	0xbe9982a5	-0.29982486
111	0x3eadf5f8	0.33976722
112	0xbcccc6cf	-0.024997143
113	0x3da285cf	0.07935678
114	0x3dd2d82e	0.10295139
115	0x3d9e497c	0.0772886
116	0xbdd4f04e	-0.10397397
117	0xbbfaa1d7	-0.0076486873
118	0x3db23109	0.08700759
119	0x3e422d61	0.18962623
120	0xbe0304f2	-0.12794855
121	0xbdcea614	-0.10090271
122	0xbda115e6	-0.07865505
123	0x3cfce064	0.030868717
124	0xbe7ba1ff	-0.24573515
125	0xbda23a61	-0.07921291
126	0xbc23648a	-0.009972701
127	0xbdbae440	-0.091255665
128	0xbdb56deb	-0.08858856
129	0xbe08b190	-0.13348985
130	0xbeff0011	-0.49804738
131	0xbdb451e4	-0.08804682
132	0x3e0d85d9	0.1382059
133	0xbeb21661	-0.347827
134	0xbc848e68	-0.016181186
135	0xbd884116	-0.06653039
136	0x3d739f7c	0.059478268
137	0xbe61091d	-0.21976133
138	0xbe41778a	-0.18893257
139	0xbeada2de	-0.3391332
140	0xbf22ba1b	-0.63565224
141	0x3da8c387	0.08240419
142	0xbe3673ba	-0.17817584
143	0xbc3dabf0	-0.011576638
144	0xbbd19e6d	-0.0063970597
145	0xbd019970	-0.03164047
146	0x3d30df5d	0.043181766
147	0xbe2d043a	-0.16896144
148	0xbe1bec9b	-0.15226977
149	0x3e2a22e8	0.16614878
150	0x3e0ffc75	0.14061148
151	0xbd88b119	-0.06674404
152	0xbd8d1d51	-0.06890357
153	0x3dcecf44	0.100981265
154	0x3e09ed51	0.13469435
155	0x3e4be324	0.19910866
156	0x3de29f02	0.110654846
157	0xbce123b1	-0.02748284
158	0x3da0682f	0.078323714
159	0x3e675ed2	0.22594765
160	0xbd8e9e79	-0.0696382
161	0xbe57b88b	-0.21066491
162	0xbe856796	-0.26055592
163	0xbc05758a	-0.008145699
164	0xbf05c455	-0.52252704
165	0xbdd454e3	-0.10367753
166	0xbd5e84da	-0.054325916
167	0xbdeed5bc	-0.1166186
168	0xbed53925	-0.4164516
169	0x3e825967	0.25458834
170	0xb85d3e5e	-5.274859e-05
171	0xbf718bdf	-0.9435405
172	0x3e88a9c9	0.26692036
173	0xbe0d7d17	-0.13817249
174	0xbe2d4b9b	-0.16923372
175	0xbe8e5124	-0.2779628
176	0x3e2243d2	0.15846184
177	0x3e078add	0.13236566
178	0xbe9b2c14	-0.30307066
179	0xbd4fda60	-0.050745368
180	0x3d8a5345	0.06754164
181	0x3e01ca08	0.12674725
182	0xbed4b838	-0.41546798
183	0x3e532045	0.20617779
184	0x3e457ac6	0.19285116
185	0x3dd78189	0.10522754
186	0x3d94034c	0.07227191
187	0x3d580c4e	0.05274611
188	0x3e12b77a	0.14327803
189	0xbc197681	-0.009366632
190	0x3d3aa7e9	0.045570288
191	0xbec35165	-0.38148037
192	0x3db55c4c	0.08855495
193	0x3e1c7ffc	0.15283197
194	0xbe52ad05	-0.20573814
195	0xbe181c4b	-0.14854543
196	0xbca4c4ca	-0.020113368
197	0xbdaa6eaf	-0.083218925
198	0xbe2afd96	-0.16698298
199	0x3eb4347c	0.35196292
200	0xbef17a73	-0.47163734
201	0x3cab34e9	0.020899253
202	0x3e6b0f26	0.22954997
203	0x3dc34f6a	0.095366314
204	0xbeab3f73	-0.33446845
205	0xbe0d0727	-0.1377226
206	0xbdd525dc	-0.10407612
207	0x3eb10ff6	0.3458249
208	0xbeac64f9	-0.33670786
209	0x3d1a3c22	0.037655003
210	0x3cfcafeb	0.030845603
211	0xbd758c93	-0.059948515
212	0x3dd15469	0.10221178
213	0x3c3dff43	0.011596504
214	0x3e2f31e3	0.17108874
215	0x3d1df558	0.038564056
216	0xbe8f4379	-0.27981165
217	0x3e3f510b	0.18683259
218	0xbe49a709	-0.19692625
219	0xbeb813d5	-0.3595263
220	0xbec41e97	-0.38304588
221	0x3c834bb7	0.016027315
222	0x3c066896	0.008203646
223	0x3da45c50	0.0802542
224	0x3e102dde	0.14079997
225	0x3d0884c7	0.03332975
226	0x3d4bebf7	0.04978558
227	0x3d34805c	0.044067726
228	0xbedb559f	-0.4283876
229	0xbe374046	-0.17895612
230	0x3dbe5666	0.09293823
231	0x3d217afc	0.039423928
232	0xbe4dc0cd	-0.20093079
233	0xbcc7b909	-0.024380224
234	0xbed16083	-0.40893945
235	0xbc2ace7d	-0.010425207
236	0x3d1fabd5	0.03898223
237	0x3e888b15	0.2666861
238	0xbe50ab47	-0.20377837
239	0x3d82b835	0.06382791
240	0x3e217cfc	0.15770334
241	0xbe188777	-0.14895426
242	0xbeaa48c1	-0.33258632
243	0x3c357024	0.0110741
244	0x3eb7d739	0.3590639
245	0x3e43aa2b	0.19107883
246	0x3e0338d3	0.12814645
247	0x3d21b6dd	0.039481033
248	0x3dc729f5	0.097247995
249	0x3d648f32	0.055800624
250	0xbd50a38d	-0.050937224
251	0xbe18ca91	-0.14921023
252	0x3e05b562	0.13057473
253	0x3dce57d1	0.100753434
254	0x3e6eafac	0.23309201
255	0x3d6e576b	0.058188837

2.bias f4 [300]
0	0xbd7b46b0	-0.06134671
1	0xbd5b0192	-0.053468294
2	0xbe9e8cf4	-0.30966914
3	0xbd170995	-0.036874373
4	0xbd74d56f	-0.05977386
5	0x3d576f2e	0.052596264
6	0xbe052398	-0.13001859
7	0xbd89ab94	-0.06722179
8	0xbd982da6	-0.07430582
9	0x3ce6ab48	0.028157845
10	0xbdab9fc4	-0.08380082
11	0xbe7c03dc	-0.24610847
12	0xbe09ad83	-0.13445096
13	0xbc3e55e8	-0.011617161
14	0xbe794668	-0.24343264
15	0xbe34a1fb	-0.17639916
16	0x3d927f88	0.07153231
17	0xbd843d63	-0.06457021
18	0xbe5b1b5e	-0.21397159
19	0xbdf15dd2	-0.11785473
20	0xbe4ac296	-0.19800791
21	0xbdafee33	-0.08590355
22	0xbde8580a	-0.11344917
23	0xbe0f757c	-0.1400966
24	0xbe098631	-0.13430096
25	0xbca214b5	-0.019785265
26	0xbd1fe288	-0.039034396
27	0xbd0ce222	-0.034395345
28	0x3d37bf46	0.044860147
29	0x3d24a12c	0.040192768
30	0xbe074a57	-0.13211952
31	0xbd1bc271	-0.03802723
32	0xbeb3a396	-0.35085744
33	0x3c9bf67d	0.019038433
34	0xbe1f43db	-0.15553229
35	0xbddf7c41	-0.109123714
36	0xbe09f75e	-0.1347327
37	0xbddc2ad5	-0.10750357
38	0xbd114d12	-0.03547389
39	0xbc693f9c	-0.014236357
40	0xbd9a63fc	-0.07538602
41	0xbcd8834f	-0.0264298
42	0xbe2a927e	-0.16657445
43	0xbe274df7	-0.16338335
44	0xbd8ef9da	-0.06981249
45	0xbdf2fcc0	-0.118646145
46	0xbe6cce40	-0.23125553
47	0x3d02ba9a	0.03191624
48	0x3dacdbc9	0.08440358
49	0xbd03ce6d	-0.032179285
50	0xbe5d1b2b	-0.21592395
51	0xbec5af27	-0.38610193
52	0xbe41102d	-0.18853827
53	0xbd85d965	-0.06535605
54	0xbdeb8916	-0.115007564
55	0xbebf8dfd	-0.37413016
56	0xbe5010f4	-0.20318967
57	0x3d2e666f	0.042578157
58	0x3d4efedc	0.05053602
59	0xbe4ce000	-0.20007324
60	0xbdd513c4	-0.104041606
61	0xbda93de4	-0.08263758
62	0x3d7ffa67	0.06249466
63	0xbe051ce2	-0.12999299
64	0x3deddb20	0.116140604
65	0xbe3992d3	-0.18122415
66	0xbd952f7b	-0.07284447
67	0x3c8a309e	0.016868886
68	0xbb40e04e	-0.002943057
69	0xbdce8b63	-0.1008518
70	0xbcbbe287	-0.022935165
71	0xbdabdbd7	-0.083915405
72	0x3dd22c2b	0.102623306
73	0x3dea69c3	0.11445954
74	0xbdf4e10c	-0.11956987
75	0xbe64915c	-0.22321075
76	0x3cf442d9	0.029817032
77	0xbdf0564d	-0.117352106
78	0x3de5135c	0.11185333
79	0xbe2bccc9	-0.16777338
80	0xbcc805f8	-0.024416909
81	0xbd89555d	-0.06705735
82	0xbd813cae	-0.06310402
83	0x3c5cd8e9	0.01347945
84	0xbe50e2f3	-0.20399074
85	0xbdee9857	-0.1165015
86	0xbe1a40fe	-0.15063855
87	0xbcbc68f9	-0.022999274
88	0xbdb3ac29	-0.08773071
89	0x3b78ba79	0.0037952943
90	0xbd47b9f8	-0.048761338
91	0xbb0c1025	-0.0021371928
92	0xbdbf3257	-0.093357734
93	0xbbc46277	-0.0059931832
94	0xbdb0e91d	-0.08638213
95	0xbd65a2d4	-0.056063488
96	0xbe00f03b	-0.1259164
97	0xbd420d37	-0.047375884
98	0xbe9af04a	-0.3026145
99	0xbc81b185	-0.015831718
100	0xbe6f55bf	-0.23372553
101	0x3cce92d0	0.02521649
102	0x3c5525f3	0.013009536
103	0xbe6c7c06	-0.23094186
104	0x3d423a7c	0.047419056
105	0xbda5452a	-0.080698326
106	0xbd9cc92e	-0.076555595
107	0xbd997811	-0.07493604
108	0xbd47f9d3	-0.048822235
109	0xbd18cb57	-0.037303295
110	0xbdb5b073	-0.08871546
111	0xbe8d7888	-0.2763102
112	0xbd60ef03	-0.05491544
113	0x3d842487	0.064522795
114	0xbdcedf91	-0.10101236
115	0x3da04ce7	0.07827168
116	0x3dae42fa	0.085088685
117	0xbe43bf4f	-0.19115947
118	0x3d8f2eaa	0.06991322
119	0x3d63c813	0.055610728
120	0xbd37e253	-0.044893574
121	0xbd472700	-0.048621178
122	0xbe5f0abd	-0.2178144
123	0xbe366fba	-0.17816058
124	0xbcd67af5	-0.026181677
125	0xbe691fa4	-0.22765976
126	0xbded257e	-0.11579417
127	0xbe60f39d	-0.21967931
128	0xbc0bbfb3	-0.008529591
129	0xbc0d1b98	-0.008612536
130	0xbe477bb6	-0.19480786
131	0xbe95ca99	-0.29256132
132	0xbd0ed608	-0.034872085
133	0xbe22e7e6	-0.15908775
134	0xbdcda756	-0.100416824
135	0x3ca25ab0	0.019818634
136	0xbe1d0130	-0.15332484
137	0xbda07d03	-0.07836344
138	0xbcf60aae	-0.03003439
139	0xbe15ce53	-0.14629488
140	0xbe189749	-0.1490146
141	0x3cadbffe	0.021209713
142	0xbdd1fd4a	-0.10253389
143	0x3d504537	0.05084726
144	0xbbd2f0b9	-0.006437388
145	0x3cbd7ff1	0.023132296
146	0xbdaaa9fd	-0.08333204
147	0x3cc0f60a	0.02355482
148	0xbd166977	-0.036721673
149	0xbdc793cc	-0.09744987
150	0xbd1e3293	-0.03862245
151	0xbde99431	-0.114052184
152	0x3d0ccfe2	0.03437794
153	0xbd708e50	-0.05872947
154	0xbdd8a3e1	-0.105781324
155	0x3b5aff18	0.0033416208
156	0xbdb42407	-0.08795934
157	0xbf0a778a	-0.5408865
158	0x3d6a078a	0.057136096
159	0xbe34d1c1	-0.1765814
160	0xbddc8501	-0.10767556
161	0x3bb40f2d	0.005494973
162	0xbdc68410	-0.09693158
163	0xbdf09c6f	-0.11748587
164	0xbd82cb06	-0.0638638
165	0x3dc02f5d	0.09384034
166	0xbb363b13	-0.0027806207
167	0xbca2e9c9	-0.019886868
168	0xbe2a3a5f	-0.1662383
169	0xbd1aa1ec	-0.037752077
170	0x3ccf8c85	0.02533556
171	0x3df587cf	0.11988794
172	0xbc86a81f	-0.016437588
173	0x3c3ad1a9	0.011402526
174	0xbda555d5	-0.08073012
175	0xbea26db4	-0.31724322
176	0xbd715092	-0.05891473
177	0xbddddb48	-0.1083284
178	0xbd805859	-0.06266851
179	0xbdfd5258	-0.123692214
180	0x3afb2eff	0.0019163786
181	0xbe76eae1	-0.24113037
182	0xbe932e8f	-0.2874646
183	0xbca19c8b	-0.019727966
184	0x3b862621	0.004093901
185	0x3da234c4	0.079202205
186	0x3bf5eed7	0.0075052786
187	0xbda3e6ae	-0.08002983
188	0xbe269a3a	-0.1626977
189	0xbde89970	-0.11357391
190	0x3c958008	0.018249527
191	0xbda6d8c2	-0.08146812
192	0xbd6c25c3	-0.0576532
193	0x3d397e99	0.04528675
194	0xbd3dfd96	-0.046384417
195	0xbdd0a43e	-0.10187577
196	0xbce22673	-0.027606225
197	0x3cba5354	0.022744812
198	0xbd47babc	-0.04876207
199	0xbde76e4a	-0.11300333
200	0xbdaae654	-0.08344713
201	0xbbb73f0b	-0.005592232
202	0xbd8eeb36	-0.06978457
203	0xbd09c86e	-0.03363841
204	0xbd8fe846	-0.070267245
205	0xbd8647bf	-0.06556653
206	0x3d186244	0.03720309
207	0xbdea68f4	-0.114457995
208	0xbe05df1b	-0.13073389
209	0xbbf43e34	-0.0074537043
210	0xbd156b69	-0.036479387
211	0xbd7b1926	-0.06130328
212	0xbdef718a	-0.11691578
213	0xbe52fabf	-0.20603465
214	0x3de74ff1	0.112945445
215	0xbd832019	-0.064026065
216	0xbdd401c6	-0.10351901
217	0xbe14f5d2	-0.14546898
218	0xbcba1399	-0.022714423
219	0xbd0cb198	-0.034349054
220	0xbe665e86	-0.22496995
221	0xbe0c2c1b	-0.136887
222	0x3e68490a	0.22684112
223	0xbe37e7fa	-0.17959586
224	0x3e1d71c6	0.15375432
225	0xbdff3de2	-0.12462975
226	0xbd90af0d	-0.07064638
227	0x3d51ab14	0.051188543
228	0xbc55e22b	-0.013054411
229	0xbd1034b4	-0.03520651
230	0xbdd401d7	-0.103519134
231	0xbdf5ff97	-0.120116405
232	0xbd44e52c	-0.048070118
233	0xbe6446ae	-0.22292587
234	0xbce617e9	-0.028087573
235	0xbc7f9382	-0.015599133
236	0xbcadbf23	-0.021209305
237	0xbadb1590	-0.00167148
238	0xbcf7bf99	-0.030242728
239	0xbd9c9ce3	-0.07647111
240	0xbe52bf26	-0.2058073
241	0xbd4a6037	-0.049408164
242	0xbe1cda2e	-0.15317604
243	0x3daab910	0.08336079
244	0xbe2efc9d	-0.17088552
245	0xbe05d68d	-0.13070126
246	0x3d10bbb9	0.035335276
247	0xbe032439	-0.12806787
248	0xbe1d5c1b	-0.15367167
249	0x3deb08c9	0.11476285
250	0x3d2de853	0.04245789
251	0xbd6b559f	-0.0574547
252	0x3d2f1574	0.04274507
253	0xbec071a4	-0.375867
254	0xbd22586c	-0.039635107
255	0x3c3f0b09	0.011660346

4.weight f4 [4, 300]
0	0x3d841f15	0.06451241
1	0x3e8a7e31	0.270494
2	0xbf67ac27	-0.9049706
3	0xbfb368bf	-1.4016341
4	0xbececc3c	-0.40390193
5	0xbe893b37	-0.2680299
6	0x3f034452	0.51276124
7	0x3e8f4dcb	0.2798904
8	0x3f1a6576	0.6031107
9	0x3e866fd8	0.26257205
10	0xbe330a15	-0.17484315
11	0xbf7050df	-0.938734
12	0x3f814fb9	1.0102454
13	0xbefa3d36	-0.48874825
14	0xbe8d4ad7	-0.2759616
15	0xbe75931f	-0.23981903
16	0xbe730469	-0.23732151
17	0xbed0a352	-0.40749604
18	0xbe04dae9	-0.12974133
19	0x3ee311a9	0.4434941
20	0x3edab12b	0.42713293
21	0x3e192d1f	0.14958619
22	0x3f5b1437	0.8557772
23	0x3e7fa125	0.24963816
24	0x3f61ae32	0.88156426
25	0x3ec357fb	0.3815306
26	0xbf8a8d59	-1.0824386
27	0xbf0a1c6e	-0.5394963
28	0x3df5aa1f	0.11995339
29	0x3fa16a11	1.2610494
30	0xbd472cb0	-0.0486266
31	0xbea98753	-0.33111057
32	0x3ed63a38	0.41841292
33	0x3f03c8e2	0.514784
34	0x3f8ddadc	1.1082416
35	0x3e079412	0.13240078
36	0xbea3d9f9	-0.32002237
37	0x3f26b776	0.6512369
38	0x3f1e65a2	0.6187383
39	0x3ceb210f	0.028702287
40	0x3e26fea6	0.16308078
41	0x3f42b2a5	0.7605384
42	0x3e14e618	0.14540899
43	0x3f4eb0cf	0.8073854
44	0xbe21c388	-0.15797246
45	0xbf77e8de	-0.968397
46	0xbefbc5fd	-0.4917449
47	0x3f1e5f49	0.61864144
48	0x3eab834e	0.33498615
49	0x3eca87de	0.39556783
50	0xbe1a34b9	-0.15059175
51	0x3f22eeae	0.63645446
52	0x3f54b523	0.8308889
53	0xbc447e3d	-0.011992988
54	0xbe088e8f	-0.13335632
55	0x3f7f08a8	0.99622583
56	0xbe4cfc79	-0.20018186
57	0x3f1fe690	0.62461185
58	0x3e43e040	0.19128513
59	0x3ebdfd34	0.3710724
60	0x3dd85061	0.10562206
61	0xbf31ec37	-0.6950106
62	0x3d107dbb	0.035276156
63	0xbed7f3ee	-0.4217829
64	0xbe803710	-0.2504201
65	0x3da005a3	0.07813575
66	0x3f3595da	0.7093178
67	0x3eb57b9d	0.35445872
68	0xbe1c4beb	-0.15263335
69	0x3f02a0f9	0.51026875
70	0xbe515137	-0.20441137
71	0xbe225780	-0.15853691
72	0x3efe7596	0.49699086
73	0xbda642a2	-0.08118178
74	0xbf4cae07	-0.79953045
75	0xbf4608b1	-0.7735701
76	0x3dd7dc28	0.10540038
77	0xbe006624	-0.12538964
78	0x3f3a4952	0.7276813
79	0x3f96338f	1.1734484
80	0xbeca357a	-0.39493924
81	0xbfbec32e	-1.4903314
82	0xbf721961	-0.94569975
83	0x3ef94009	0.48681667
84	0x3f6dca82	0.9288713
85	0xbdcf84c9	-0.10132749
86	0xbe93c8fb	-0.28864273
87	0xbbd065bc	-0.006359784
88	0xbec9d61b	-0.39421162
89	0x3ec78f04	0.389763
90	0x3e74ea8e	0.239176
91	0xbec69d0e	-0.38791698
92	0xbd98f710	-0.074689984
93	0x3dfc3c87	0.12316232
94	0xbf358c09	-0.709168
95	0xbefbf75e	-0.49212164
96	0x3f6d92c3	0.92802066
97	0x3ee6f6cf	0.45110175
98	0x3dd88726	0.105726525
99	0x3eb09766	0.34490508
100	0x3e994a07	0.2993929
101	0x3d1f0591	0.038823668
102	0x3e94a3c7	0.29031202
103	0x3f0aecc4	0.54267526
104	0xbe73b0c0	-0.23797894
105	0xbeee1839	-0.46502855
106	0x3ebea540	0.3723545
107	0x3f03b34f	0.5144548
108	0x3e87fbe6	0.2655937
109	0x3d4c361c	0.04985629
110	0x3d23d646	0.03999927
111	0xbec8f0f5	-0.39246336
112	0x3e1d2a3f	0.15348147
113	0x3e3a225f	0.18177174
114	0xbf32eb69	-0.6989046
115	0x3e834b62	0.2564345
116	0x3e232501	0.15932085
117	0xbf460610	-0.77353
118	0xbea8fcf8	-0.330055
119	0xbeba4175	-0.36378065
120	0x3ea99f79	0.3312948
121	0xbf46bdcd	-0.77633363
122	0x3f2e6770	0.68126583
123	0xbf3da5b6	-0.7408098
124	0xbed5aff3	-0.417358
125	0xbf28b730	-0.6590452
126	0xbf272cec	-0.6530292
127	0xbf64da6f	-0.89395803
128	0x3e354354	0.17701465
129	0xbeedc38c	-0.46438253
130	0xbeee9a10	-0.46601915
131	0x3faf5cf8	1.3700247
132	0xbf942d7b	-1.157638
133	0x3e491391	0.1963637
134	0x3efabaed	0.48970738
135	0xbe8752b3	-0.26430282
136	0xbf279f47	-0.6547741
137	0x3f2507ad	0.6446484
138	0x3f56eeb7	0.83958
139	0x3d9a4caa	0.07534154
140	0x3f038a59	0.51382977
141	0xbf471c4c	-0.7777755
142	0xbf219dd8	-0.63131475
143	0xbe6329fe	-0.22183987
144	0xbdacd050	-0.0843817
145	0x3f2571fa	0.6462704
146	0x3f255dca	0.64596236
147	0xbe3dd0b7	-0.1853665
148	0xbe48c275	-0.1960543
149	0xbecb4328	-0.39699674
150	0xbeff810b	-0.4990314
151	0xbfc93e68	-1.572217
152	0x3ebbcb0d	0.36678353
153	0xbedfca08	-0.43708825
154	0xbf47d06f	-0.7805242
155	0x3f1d3861	0.6141415
156	0x3dd52671	0.10407723
157	0xbee31c5b	-0.4435757
158	0xbf06f1f2	-0.5271293
159	0xbf4e3b53	-0.8055927
160	0x3e09bf30	0.13451838
161	0xbd35e29e	-0.044405572
162	0xbe5a16c5	-0.21297748
163	0x3f2091a5	0.62722236
164	0xbe4a77eb	-0.19772308
165	0x3da44073	0.08020105
166	0xbe8b657c	-0.27225864
167	0x3ec39867	0.3820221
168	0x3e7b3d1f	0.24535035
169	0xbd6741ac	-0.056459114
170	0xbd3c1d12	-0.04592616
171	0x3f59e094	0.85108304
172	0x3ebc2124	0.36744034
173	0x3ecbd6b6	0.3981225
174	0x3f7f1c08	0.9965215
175	0x3f8e0c66	1.1097534
176	0xbdf644af	-0.12024819
177	0xbe93564b	-0.28776774
178	0xbf609c83	-0.8773882
179	0x3e2d224c	0.16907614
180	0x3e00e7d9	0.12588443
181	0xbf683b43	-0.90715426
182	0xbf0064ee	-0.50154006
183	0xbedbef99	-0.42956236
184	0xbf4e667c	-0.8062513
185	0x3f30838e	0.68950737
186	0xbf3221cd	-0.69582826
187	0xbe2faa5e	-0.17154834
188	0x3ed459fe	0.4147491
189	0x3f1f57b8	0.62243223
190	0xbea9cf3e	-0.33165926
191	0xbf2b621c	-0.6694658
192	0x3e49e3f2	0.1971586
193	0x3d6f0d1d	0.058362115
194	0x3dc68e39	0.096950956
195	0x3ebd8fe0	0.3702383
196	0x3f29299a	0.66079104
197	0x3dd8cb22	0.105856195
198	0x3e9a97d8	0.30193973
199	0x3e75f55a	0.24019375
200	0xbef9d9bc	-0.4879893
201	0x3ea0cc13	0.31405696
202	0xbfa3ecbf	-1.2806624
203	0x3c879fc3	0.016555673
204	0xbf59c482	-0.8506547
205	0xbf027951	-0.50966364
206	0xbf505988	-0.81386614
207	0xbeec6c5d	-0.46176425
208	0x3f33c73a	0.7022587
209	0x3dba8e15	0.09109131
210	0xbf3d66ac	-0.7398479
211	0xbcb85fce	-0.02250662
212	0xbec43f16	-0.3832938
213	0xbe8ebe53	-0.2787958
214	0x3eb1d875	0.34735456
215	0x3f07d02b	0.53052014
216	0x3d61b107	0.055100467
217	0xbf41287a	-0.7545239
218	0x3f3ee277	0.7456431
219	0x3f657d82	0.89644635
220	0xbea7cbbe	-0.3277263
221	0xbeffafea	-0.499389
222	0x3e2f59d6	0.17124113
223	0xbf3fc6a0	-0.7491245
224	0xbf1fa4c4	-0.6236079
225	0x3effff77	0.49999592
226	0xbf364eb6	-0.71213853
227	0xbf39db87	-0.726006
228	0xbf6447fc	-0.8917234
229	0xbe87c96d	-0.26520863
230	0x3f83ea98	1.0305967
231	0x3ed193fa	0.4093321
232	0x3ed5a5f9	0.4172819
233	0x3dc2945c	0.095009536
234	0xbe0d538f	-0.13801406
235	0xbf0a4e1d	-0.5402544
236	0xbf0ab9ce	-0.54189765
237	0xbf01be56	-0.50681055
238	0x3f6df23d	0.9294775
239	0xbf0bc89e	-0.5460299
240	0x3f635782	0.888054
241	0xbe765341	-0.24055196
242	0x3f6c93c9	0.92413
243	0x3e744cd0	0.23857427
244	0x3f84a555	1.0362955
245	0x3ed152c4	0.40883458
246	0x3f0763d9	0.5288673
247	0x3ef43e70	0.47703886
248	0xbc3d354f	-0.011548354
249	0x3eb350ec	0.35022676
250	0x3f31f4db	0.69514245
251	0x3f4d5b19	0.8021713
252	0x3e8698ed	0.26288548
253	0x3db84c3e	0.08998917
254	0xbed4bcb2	-0.41550213
255	0x3de21a26	0.11040144

4.bias f4 [4]
0	0xbd080ce7	-0.03321543
1	0x3d8ebf64	0.069700986
2	0x3dbc0001	0.09179688
3	0x3d912273	0.07086649
