critic_checkpoint.pth (torch_old, 544363 bytes, 5 tensors)

first_linear_layer.weight f4 [400, 37]
0.07376705 -0.22994947 -0.024767065 -0.5208605 0.26650482 1.2549211 -0.3219046 0.27548328
0.4853787 0.38025546 0.03505342 0.16419373 0.31163228 -0.37166813 0.6547153 -0.28067213
0.20024827 -0.32717314 -0.22187757 -0.5691483 -0.07810232 -0.24863155 -0.12923972 -0.052613407
0.1643649 0.009944373 0.6076946 0.85904795 0.20512336 0.042820916 -0.93135077 0.013145834
-1.2055987 0.1571402 0.16461957 0.17102769 -0.062229883 -0.09940286 0.46494302 -0.16190645
0.2908539 -0.5072659 -1.3806945 0.2770964 -0.24309611 0.55906326 -0.07892253 0.14431466
0.37010092 -0.22015676 -0.335605 1.5792781 0.2510206 -0.26841283 -0.25371101 -0.30934262
-0.6948097 0.07071148 -0.1284907 -0.04373995 -0.00856615 0.109539606 -0.02206084 0.060183007
0.35749647 -0.21647285 0.021843463 -0.14693937 -0.019329205 0.91805685 0.23520169 0.013734524
0.44785106 -0.2438788 -0.3688094 -0.24481335 0.0011763817 -1.0592489 0.3273672 0.34851626
-0.55163556 -0.23927034 -0.12963511 0.7198406 -0.14359254 0.12797295 0.08735776 -0.026329512
-0.018862266 -0.121043995 -0.23164777 -0.72727394 0.7609714 0.7390715 -0.070025586 0.39535755
-0.24045444 0.16404147 0.061692305 -0.117951006 0.24156287 0.8826935 -0.26596656 -0.050857455
-1.0079068 0.11800508 -1.8233458 0.09869809 0.07033051 -0.029925691 -0.06835595 0.3534624
0.7072963 0.65515596 -0.6429117 -0.23648198 -0.024211464 -0.18731523 -0.00043278327 -0.24488798
0.14457615 -0.095584564 0.1259809 0.018141279 -0.35810748 -0.5039209 -0.40324125 0.4842469
-0.5583972 1.1161684 -0.30372804 0.03218258 0.02266876 -0.094130345 0.15003237 -0.20686355
-0.055537295 0.3153959 0.7210812 0.17592141 -0.041779697 -0.8014557 0.03079708 -1.3473793
0.078337245 0.059329882 -0.27708647 -0.117744975 -0.41910928 0.21168451 0.17388889 0.0022089155
-0.20235327 0.07145806 0.5397317 -0.31583822 0.18010406 0.34808183 -0.21930008 0.10814941
-0.102979556 0.53397644 -0.06819098 0.27835172 -0.25988293 0.9096054 -0.7557866 1.6991199
-0.081613965 -0.13481998 0.09746778 -0.11802549 -0.026035428 0.0989406 -0.44451228 0.74580395
-0.2755338 0.041452363 -0.55878794 0.15403439 -1.186235 -0.06478323 -0.07986237 -0.2291757
-0.050181307 0.039692506 0.2904604 -0.5251711 0.20099615 -0.42660984 -0.11936107 -0.7640307
-0.19424379 -0.16984046 0.18908955 -0.24597299 0.245248 -0.11994961 -0.36278218 0.4413497
0.21622528 0.10967261 -0.6056692 -0.24981752 0.38749388 -0.10739749 0.08537828 -0.020701004
0.06594949 -0.20147894 0.024775367 0.24839365 0.7070463 -0.09521644 -0.106087044 -0.74265826
0.15128385 -2.3252423 0.3333608 0.29483923 0.13596788 0.44914684 0.40363914 0.02931156
0.036964692 -0.92635226 -1.0614017 0.20069668 -0.3632171 0.056907088 1.488014 0.2377094
-0.21819122 0.041604634 -0.11105872 -0.59300077 0.010120124 0.0858496 0.11198215 0.12885918
-0.31070465 1.4035864 -0.020100614 0.05893348 0.10930684 -0.353043 -0.0031347533 0.1753454
0.11907453 1.1115493 -0.08860695 0.14303939 -1.0085443 0.096839234 1.4032329 -0.078440525
00000000: 2e13 973d e077 6bbe 4de4 cabc 1d57 05bf
00000010: 5273 883e 41a1 a03f aed0 a4be 250c 8d3e
00000020: 8f83 f83e d8b0 c23e 2d94 0f3d 6722 283e
00000030: 448e 9f3e 494b bebe 6c9b 273f 42b4 8fbe
00000040: e20d 4d3e 3d83 a7be e033 63be b4b3 11bf
00000050: 1cf4 9fbd 4599 7ebe 6b57 04be 2881 57bd
00000060: 464f 283e b9ed 223c e091 1b3f 91ea 5b3f
00000070: dc0b 523e fc64 2f3d 016d 6ebf a061 573c
00000080: 0f51 9abf 5ce9 203e 0892 283e e221 2f3e
00000090: c3e4 7ebd ba93 cbbd 030d ee3e ceca 25be
000000a0: cdea 943e 2edc 01bf 99ba b0bf 94df 8d3e
000000b0: 30ee 78be c51e 0f3f 23a2 a1bd 39c7 133e
000000c0: de7d bd3e c670 61be 6bd4 abbe c925 ca3f
000000d0: c685 803e 686d 89be 69e6 81be 2862 9ebe
000000e0: 0cdf 31bf 2ed1 903d 1193 03be a928 33bd
000000f0: 0a59 0cbc 4d56 e03d efb8 b4bc 7582 763d
00000100: c709 b73e 0fab 5dbe 10f1 b23c 4677 16be
00000110: 4858 9ebc c605 6b3f b6d8 703e c506 613c
00000120: bc4c e53e 5dbb 79be 96d4 bcbe 5ab0 7abe
00000130: d230 9a3a 7895 87bf ac9c a73e b970 b23e
00000140: fd37 0dbf 4903 75be 11bf 04be 7947 383f
00000150: ec09 13be 570b 033e a0e8 b23d fdb0 d7bc
00000160: 0a85 9abc eae5 f7bd 1335 6dbe a02e 3abf
00000170: 06cf 423f ca33 3d3f 9369 8fbd 4e6c ca3e
00000180: b039 76be 7dfa 273e 12b1 7c3d 4c90 f1bd
00000190: 425c 773e 34f8 613f c52c 88be e84f 50bd
000001a0: 1703 81bf a6ac f13d 6563 e9bf 3922 ca3d
000001b0: 7109 903d b926 f5bc 34fe 8bbd 06f9 b43e
000001c0: 5f11 353f 4db8 273f dc95 24bf 5528 72be
000001d0: 1f57 c6bc 90cf 3fbe 30e7 e2b9 eac3 7abe
000001e0: c50b 143e d7c1 c3bd 2301 013e 059d 943c
000001f0: dd59 b7be f600 01bf a375 cebe 36ef f73e
00000200: 1ef3 0ebf 9bde 8e3f 3e82 9bbe e2d1 033d
00000210: d6b3 b93c 69c7 c0bd 16a2 193e 0ad4 53be
00000220: 137b 63bd 927b a13e c798 383f be24 343e
00000230: 3021 2bbd 332c 4dbf 284a fc3c ed76 acbf
00000240: 476f a03d e403 733d 47de 8dbe 4724 f1bd
00000250: 7e95 d6be d3c3 583e ee0f 323e 74c3 103b
00000260: b235 4fbe 9a58 923d db2b 0a3f 8cb5 a1be
00000270: 336d 383e c837 b23e 3390 60be 707d dd3d
00000280: f2e6 d2bd aeb2 083f b6a7 8bbd 1e84 8e3e
00000290: 600f 85be e6db 683f 3b7b 41bf c37c d93f
000002a0: 3925 a7bd 400e 0abe 309d c73d 59b7 f1bd
000002b0: 4048 d5bc 5fa1 ca3d 1d97 e3be 02ed 3e3f
000002c0: c412 8dbe f4c9 293d ba0c 0fbf 31bb 1d3e
000002d0: 8cd6 97bf 12ad 84bd e28e a3bd 09ad 6abe
000002e0: ea8a 4dbd 9c94 223d 3ab7 943e 9d71 06bf
000002f0: efd1 4d3e 9b6c dabe 9473 f4bd 8497 43bf
00000300: d8e7 46be a8ea 2dbe b1a0 413e 58e0 7bbe
00000310: 4b22 7b3e 24a8 f5bd 96be b9be 96f8 e13e
00000320: 296a 5d3e 099c e03d 230d 1bbf 2ad0 7fbe
00000330: 9965 c63e 37f3 dbbd cfda ae3d 2795 a9bc
00000340: 8710 873d 7f50 4ebe b6f5 ca3c e85a 7e3e
00000350: fc00 353f d600 c3bd 2a44 d9bd da1e 3ebf
00000360: 27ea 1a3e c5d0 14c0 44ae aa3e 2bf5 963e
00000370: 2a3b 0b3e 93f6 e53e caa9 ce3e cc1e f03c
00000380: 4a68 173d 6c25 6dbf 03dc 87bf 6e83 4d3e
00000390: 97f7 b9be 6817 693d 3e77 be3f 186a 733e
000003a0: 856d 5fbe 9f69 2a3d c172 e3bd e6ce 17bf
000003b0: e0ce 253c ead1 af3d e656 e53d a9f3 033e
000003c0: ae14 9fbe b8a8 b33f 0baa a4bc 3c64 713d
000003d0: 44dc df3d 0dc2 b4be 6f70 4dbb bf8d 333e
000003e0: 59dd f33d 3f47 8e3f 9077 b5bd eb78 123e
000003f0: fb17 81bf a653 c63d 239d b33f 6da5 a0bd

first_linear_layer.bias f4 [400]
-0.74791706 -0.21823429 -0.87378293 -0.8730827 -0.48716947 -0.50884604 -1.0816306 -0.27545673
-0.9956795 -1.3204021 -1.2070847 -0.5023788 -0.9460778 -1.0986379 -0.6884509 -0.8024502
-0.08975259 -0.75096124 -1.0937897 -0.9605761 -0.24969456 -0.75759447 -0.67472255 -0.71627086
-0.9013596 -0.51462454 -0.5132303 -0.68080616 -0.8572091 -0.528942 -0.59493417 -0.25657293
-0.84777755 -0.8670204 -0.5118608 -0.85681987 -0.27309155 -0.21891923 -0.88514596 -0.81419086
-0.74102163 -0.5845875 -0.7413422 -0.72086483 -0.77701455 -0.94168174 -0.52240705 -1.0029783
-0.93775505 -0.5278306 -1.0860766 -0.8257278 -0.6543276 -0.5337678 -0.9886029 -0.9027186
-0.51721036 -0.63046664 -0.66822976 -0.9145639 -0.6099399 -0.9616545 -1.1942735 -0.69545454
-0.7734495 -0.28903875 -0.95038587 -0.7044763 -0.71036226 -0.8233606 -0.2322397 -0.63266546
0.123781696 -0.20022391 -0.4712356 -0.7117123 -0.66400254 -1.3202174 -0.8557339 -1.0892923
-1.0300146 -0.36186826 -1.0258995 -0.30385697 -0.8521975 -1.0890307 -0.21978265 -1.2875177
-0.5652498 -0.38392934 -0.741596 -0.70928097 -1.1153392 -0.42040136 -0.45625216 -1.2043091
-1.029044 -0.5792938 -1.0075097 -0.84058034 -0.8767183 -0.8060104 -0.78605247 -0.9761415
-0.9702871 -0.57177436 -0.2514163 -0.7415488 -0.12459875 -0.73546624 -0.71639365 -0.72826225
-0.3634521 -0.3526933 -0.62937754 -0.51967746 -0.69971687 -1.0960523 -0.81443757 -1.0953792
-0.7275005 -0.38231626 -0.27673143 -0.94502735 -1.127655 -0.81059855 -1.0716304 -0.886035
-1.1792692 -0.7308633 -1.0093341 -0.9528442 -0.5999317 -0.81120586 -1.1435795 -0.5280149
-1.097727 -0.8821026 -1.1476849 -0.7171765 -0.4538666 -0.4363282 -1.0058298 -0.92147
-0.9134967 -1.0987958 -1.3264194 -0.7107155 -0.34892076 -0.7593703 -0.23640585 -1.024959
-0.6988431 -0.7345306 -0.36711788 -0.7211269 -0.3223556 -0.55540127 0.12869121 -0.26624346
0.15912907 -0.5415711 -0.91820526 -1.0338329 -0.3877911 -0.63605857 -1.1853703 -1.2121195
-1.1182923 -1.1147063 -0.32517007 -0.40840113 -0.98200136 -0.852438 -1.0085458 -0.27859458
-1.1461346 -0.5723397 -1.093638 -0.7887122 -0.54375386 -1.1899159 -1.1177374 -0.84689903
-0.3316859 -0.4641009 -1.0031298 -0.80970484 -0.9437584 -0.55011576 -0.3143402 -0.5655108
-1.0329689 -0.8694914 -0.22722387 -0.6791011 -0.7084967 -0.979991 -0.5142585 -0.93241805
-1.0131636 -0.87069744 -1.1349317 -0.5467276 -0.36951742 -0.6134936 -0.44658387 -0.29596516
-0.75615215 -1.152843 -0.20460214 -0.75520384 -1.216502 -0.9654308 -0.4283176 -0.36157337
-0.5669938 -0.27151614 -0.68338186 0.23342751 -0.4436318 -0.9100421 -0.9821652 -0.6770829
-0.24430437 -1.060608 -0.74803674 -0.5301518 -1.0052919 0.07065057 -0.5719035 -0.6828927
-1.0873823 -1.0329072 -0.8820769 -0.58110136 -0.95801336 -0.7748425 -0.71392 -0.7848766
-0.74361163 -0.7889408 -0.74988997 -0.559691 -0.35815117 -0.7434436 -0.41346756 -0.55061203
-0.71802765 -0.5293536 -0.96003175 -0.32335284 -0.41542912 -0.50280124 -0.9204618 -0.44948065
00000000: 7e77 3fbf cf78 5fbe 3db0 5fbf 5982 5fbf
00000010: 476e f9be bc43 02bf df72 8abf aa08 8dbe
00000020: dae4 7ebf f002 a9bf c081 9abf e69b 00bf
00000030: 2832 72bf 2ba0 8cbf 513e 30bf 606d 4dbf
00000040: 35d0 b7bd ff3e 40bf 4d01 8cbf 51e8 75bf
00000050: eeaf 7fbe b6f1 41bf 9eba 2cbf 875d 37bf
00000060: 81bf 66bf 6fbe 03bf 1063 03bf 5049 2ebf
00000070: 0e72 5bbf be68 07bf 9b4d 18bf 875d 83be
00000080: f307 59bf 0df5 5dbf 4f09 03bf 8c58 5bbf
00000090: a8d2 8bbe 5d2c 60be ed98 62bf d06e 50bf
000000a0: 98b3 3dbf 87a7 15bf 9ac8 3dbf 998a 38bf
000000b0: 6dea 46bf 0e12 71bf 78bc 05bf 9861 80bf
000000c0: b710 70bf e81f 07bf 8f04 8bbf e662 53bf
000000d0: 0382 27bf 02a5 08bf 1415 7dbf 9118 67bf
000000e0: e667 04bf 4366 21bf 1b11 2bbf dc20 6abf
000000f0: 0525 1cbf fd2e 76bf f4dd 98bf 4f09 32bf
00000100: c900 46bf e3fc 93be 7d4c 73bf 8f58 34bf
00000110: 4dda 35bf c3c7 52bf 3ed0 6dbe 5df6 21bf
00000120: 4281 fd3d 7f07 4dbe cb45 f1be c732 36bf
00000130: 12fc 29bf e2fc a8bf 6011 5bbf ee6d 8bbf
00000140: 85d7 83bf cc46 b9be ad50 83bf 2493 9bbe
00000150: 9e29 5abf 5c65 8bbf b40e 61be 61cd a4bf
00000160: 36b4 10bf 6392 c4be 3cd9 3dbf 7093 35bf
00000170: 6fc3 8ebf d93e d7be e299 e9be cd26 9abf
00000180: b7b7 83bf 994c 14bf 14f6 80bf 4630 57bf
00000190: 9c70 60bf b356 4ebf bc3a 49bf 69e4 79bf
000001a0: bc64 78bf ce5f 12bf a3b9 80be 24d6 3dbf
000001b0: a12d ffbd 8447 3cbf 9365 37bf 656f 3abf
000001c0: 6516 babe 3794 b4be e31e 21bf 9509 05bf
000001d0: a520 33bf 714b 8cbf fb7e 50bf 6335 8cbf
000001e0: 793d 3abf f5be c3be beaf 8dbe 50ed 71bf
000001f0: 0057 90bf 6383 4fbf 2f2b 89bf 31d3 62bf
00000200: 4bf2 96bf db19 3bbf dc31 81bf 99ed 73bf
00000210: 2095 19bf 30ab 4fbf d060 92bf fc2b 07bf
00000220: 5182 8cbf 7ad1 61bf 57e7 92bf e198 37bf
00000230: 3461 e8be 6966 dfbe 08bf 80bf 75e5 6bbf
00000240: ebda 69bf 57a5 8cbf 1cc8 a9bf 73f1 35bf
00000250: bea5 b2be 1866 42bf 6014 72be db31 83bf
00000260: 62e7 32bf 330a 3cbf e0f6 bbbe c69b 38bf
00000270: cb0b a5be c72e 0ebf a1c7 033e 1051 88be
00000280: bbf2 223e 67a4 0abf 800f 6bbf a354 84bf
00000290: 8e8c c6be bcd4 22bf 37ba 97bf bb26 9bbf
000002a0: 3424 8fbf b2ae 8ebf b17c a6be f419 d1be
000002b0: 7164 7bbf 6039 5abf 0718 81bf f3a3 8ebe
000002c0: 8ab4 92bf db84 12bf 54fc 8bbf 0be9 49bf
000002d0: 7433 0bbf 2a4f 98bf 0512 8fbf 60ce 58bf
000002e0: bcd2 a9be a29e edbe 8f66 80bf d148 4fbf
000002f0: 279a 71bf 63d4 0cbf 33f1 a0be 51c5 10bf
00000300: 5338 84bf fd96 5ebf 60ad 68be 92d9 2dbf
00000310: 0a60 35bf b1e0 7abf 72a6 03bf f3b2 6ebf
00000320: 58af 81bf 07e6 5ebf 7145 91bf 57f6 0bbf
00000330: 6331 bdbe eb0d 1dbf a4a6 e4be bf88 97be
00000340: 3093 41bf 5c90 93bf 3983 51be 0a55 41bf
00000350: 56b6 9bbf 7926 77bf 724c dbbe 2520 b9be
00000360: 8126 11bf 2a04 8bbe 1df2 2ebf 9f07 6f3e
00000370: b523 e3be 85f8 68bf 2e6f 7bbf 4e55 2dbf
00000380: ed2a 7abe 01c2 87bf 567f 3fbf 07b8 07bf
00000390: 68ad 80bf 3fb1 903d 4568 12bf 0ed2 2ebf
000003a0: 582f 8bbf 4e36 84bf cbcf 61bf 0fc3 14bf
000003b0: 5d40 75bf 145c 46bf 76c3 36bf aced 48bf
000003c0: 555d 3ebf 06f8 49bf caf8 3fbf e947 0fbf
000003d0: 975f b7be 5252 3ebf 05b2 d3be e9f4 0cbf
000003e0: a9d0 37bf b883 07bf a4c4 75bf 818e a5be
000003f0: 20b3 d4be 95b7 00bf 62a3 6bbf 5422 e6be

second_linear_layer.weight f4 [300, 400]
0.017003814 -0.106459 -0.011419441 -0.045549374 -0.036985196 -0.0515437 -0.054751378 -0.1545734
-0.017136132 -0.09561048 -0.104193315 -0.17122383 -0.014066512 -0.07351678 -0.066983074 0.017607462
0.003475313 -0.08192543 -0.09899962 0.017516633 -0.10675508 0.013531304 -0.077519774 0.052432
-0.08389415 0.029454052 -0.21520384 0.032968 0.005134805 -0.05465778 0.01679516 -0.011215263
-0.010015662 0.011245399 -0.08577058 -0.008172172 -0.025809744 -0.11091447 -0.10579714 0.00014959453
-0.04476436 0.020508453 -0.04641433 0.010318618 0.021843677 0.089768976 -0.04267489 -0.07385857
0.050345894 -0.026994571 -0.07569201 -0.048508603 -0.025809402 -0.020020572 -0.015306558 0.034836486
-0.04666953 -0.08214381 0.011867341 0.030750016 -0.076617315 0.040826537 0.023793207 -0.078197844
0.008124602 -0.11023824 -0.047913235 0.0066967662 -0.0072766556 0.044632867 0.019634362 0.04048821
-0.13958225 -0.072465576 -0.03994279 0.024706256 -0.029477157 -0.013890439 -0.06015243 -0.020046096
-0.09233917 -0.09956544 -0.075208664 -0.045688994 -0.12305636 0.033049595 -0.040261682 -0.1172759
-0.06129093 -0.021416493 -0.06810179 -0.04330284 -0.055017345 -0.012193582 -0.059472993 0.010938908
-0.12900594 0.039260443 -0.054913945 -0.0053056628 0.06651012 -0.051838443 0.0046914183 -0.046573132
-0.13468388 -0.031985402 -0.033838827 -0.10594264 -0.07604486 -0.04813193 -0.053859733 -0.15681686
-0.046715118 -0.017377775 -0.14515366 -0.001754957 -0.06628029 -0.018013543 -0.0127627505 -0.069009475
-0.034433857 -0.007623609 -0.14839919 0.025957942 -0.1396866 -0.0440417 -0.06576233 -0.055466853
-0.0012376875 -0.008772342 -0.03462944 -0.1316743 -0.017384263 -0.09060635 -0.11559598 -0.060376894
-0.040819544 -0.04898908 -0.14175218 -0.0652465 -0.09412831 -0.1031727 -0.0052150693 0.01127995
-0.051223107 -0.06155522 -0.0061765667 -0.09889011 -0.055235025 -0.00518854 0.049329355 0.14080767
-0.042672943 -0.040670585 -0.18668972 -0.05865956 0.18162659 -0.033570405 0.07670493 -0.07061865
-0.061362274 -0.0536179 -0.011875841 0.047316138 -0.06783938 -0.078379564 -0.019843737 -0.0881487
-0.069353774 -0.066845514 -0.11120519 -0.020597288 -0.08177694 -0.07495618 0.09174774 -0.0067660934
-0.0589471 0.017655011 0.019861547 -0.02096995 -0.004253599 -0.004493461 -0.07507334 -0.009432025
-0.11461085 -0.049786467 -0.03084746 -0.019896315 0.046774503 -0.045662254 -0.056279805 -0.13101721
-0.02040795 0.079915255 -0.103911564 -0.21106404 0.009901388 -0.11311666 -0.051199842 -0.11514728
-0.08845244 -0.052010328 0.010368688 -0.067781925 -0.035084177 -0.08209976 0.053749897 -0.07460223
0.13836648 -0.015650105 0.060251612 -0.08858431 -0.06854879 -0.109597184 0.00061558513 -0.014539583
0.02573466 -0.041245013 -0.0013354742 -0.021390585 -0.012056878 -0.051987905 0.048438292 -0.0067222486
-0.015134696 -0.177022 -0.15126419 -0.10758635 -0.08575876 0.013410955 0.05573428 -0.05038805
-0.08215703 -0.083979264 -0.06766112 -0.0035405052 -0.043482848 -0.11409707 -0.113278545 -0.0148766255
-0.0731662 0.04219077 -0.019604905 -0.12827826 -0.02968805 0.009970269 -0.10731507 -0.09851935
-0.08265876 -0.0005869184 -0.06305129 0.050782826 -0.1294583 -0.11851219 -0.063501574 -0.02156465
00000000: 954b 8b3c 2d07 dabd 9b18 3bbc fb91 3abd
00000010: ca7d 17bd 7d1f 53bd fb42 60bd 7d48 1ebe
00000020: 1361 8cbc 6dcf c3bd 4e63 d5bd 4d55 2fbe
00000030: 3a77 66bc f78f 96bd 6c2e 89bd 863d 903c
00000040: 14c2 633b 85c8 a7bd 50c0 cabd 0b7f 8f3c
00000050: 68a2 dabd 67b2 5d3c b0c2 9ebd f0c2 563d
00000060: b2d0 abbd a049 f13c 655e 5cbe 7409 073d
00000070: de41 a83b d6e0 5fbd 0196 893c 39c0 37bc
00000080: bb18 24bc 9f3e 383c 7ca8 afbd 93e4 05bc
00000090: f56e d3bc 2027 e3bd 2cac d8bd 7adc 1c39
000000a0: d55a 37bd 5801 a83c f41c 3ebd 6c0f 293c
000000b0: 83f1 b23c ccd8 b73d decb 2ebd 2943 97bd
000000c0: 7f37 4e3d b823 ddbc 6a04 9bbd f5b0 46bd
000000d0: 3d6e d3bc 2f02 a4bc 5cc8 7abc b4b0 0e3d
000000e0: 8d28 3fbd 043b a8bd 3c6f 423c 75e7 fb3c
000000f0: 8ae9 9cbd ba39 273d f9e9 c23c 3126 a0bd
00000100: 0d1d 053c 96c4 e1bd ab40 44bd 8c70 db3b
00000110: 0371 eebb f4d0 363d 3ed8 a03c f7d6 253d
00000120: a6ee 0ebe d568 94bd 0d9b 23bd c664 ca3c
00000130: 147a f1bc b994 63bc 6562 76bd b637 a4bc
00000140: 521c bdbd f7e8 cbbd 0007 9abd 6224 3bbd
00000150: f904 fcbd 035f 073d 6fe9 24bd 592e f0bd
00000160: 330c 7bbd a471 afbc f478 8bbd 525e 31bd
00000170: de59 61bd 97c7 47bc f499 73bd 1b39 333c
00000180: 221a 04be 8fcf 203d 72ed 60bd 20db adbb
00000190: 7536 883d 8c54 54bd 78ba 993b 78c3 3ebd
000001a0: 92ea 09be 2003 03bd 959a 0abd 74f8 d8bd
000001b0: 68bd 9bbd fd25 45bd 069c 5cbd 9994 20be
000001c0: 5a58 3fbd d65b 8ebc 29a3 14be 9606 e6ba
000001d0: f6bd 87bd 2391 93bc db1a 51bc d754 8dbd
000001e0: 840a 0dbd 78cf f9bb f5f5 17be c0a5 d43c
000001f0: 010a 0fbe 1265 34bd 67ae 86bd 3631 63bd
00000200: e739 a2ba deb9 0fbc 9ad7 0dbd a1d5 06be
00000210: 7169 8ebc d28f b9bd 96bd ecbd c34d 77bd
00000220: 6532 27bd c6a8 48bd 7c27 11be f59f 85bd
00000230: 58c6 c0bd 354c d3bd 2ce3 aabb 8acf 383c
00000240: 52cf 51bd 5421 7cbd cc64 cabb e686 cabd
00000250: 1f3e 62bd a104 aabb 940d 4a3d e32f 103e
00000260: d3c9 2ebd 3396 26bd 972b 3fbe 0245 70bd
00000270: 52fc 393e 1f81 09bd 7917 9d3d 83a0 90bd
00000280: 0257 7bbd 719e 5bbd e392 42bc 91ce 413d
00000290: 5fef 8abd 7785 a0bd 558f a2bc 4e87 b4bd
000002a0: 5a09 8ebd 4de6 88bd 8cbf e3bd a5bb a8bc
000002b0: ab7a a7bd a082 99bd 3de6 bb3d 1bb6 ddbb
000002c0: 8472 71bd 3ea1 903c afb4 a23c 2cc9 abbc
000002d0: c661 8bbb e23d 93bb 0dc0 99bd c888 1abc
000002e0: 18b9 eabd e5ec 4bbd d0b3 fcbc 99fd a2bc
000002f0: 9f96 3f3d 5808 3bbd a785 66bd 6029 06be
00000300: 932e a7bc 9caa a33d 96cf d4bd 2c21 58be
00000310: 6e39 223c b5a9 e7bd edb6 51bd 56d2 ebbd
00000320: 8e26 b5bd c808 55bd 6ee1 293c 40d1 8abd
00000330: 6db4 0fbd eb23 a8bd da28 5c3d 0ec9 98bd
00000340: f1af 0d3e a634 80bc 65ca 763d b16b b5bd
00000350: 4f63 8cbd 7d74 e0bd 385f 213a 6e37 6ebc
00000360: 7ed1 d23c 88f0 28bd 140b afba 4f3b afbc
00000370: 368a 45bc 45f1 54bd 3b67 463d 4f46 dcbb
00000380: 84f7 77bc 4145 35be 00e5 1abe 3b56 dcbd
00000390: 4aa2 afbd 9fb9 5b3c a149 643d b363 4ebd
000003a0: f241 a8bd 52fd abbd ea91 8abd d207 68bb
000003b0: 121b 32bd baab e9bd 95fe e7bd 17bd 73bc
000003c0: 29d8 95bd 3bd0 2c3d 779a a0bc 605b 03be
000003d0: 5a34 f3bc 575a 233c 01c8 dbbd 83c4 c9bd
000003e0: ff48 a9bd 6ddb 19ba 0921 81bd a701 503d
000003f0: b790 04be 85b6 f2bd 1d0d 82bd 59a8 b0bc

second_linear_layer.bias f4 [300]
-0.095005065 -0.06745837 -0.096054286 -0.061362706 -0.055777494 -0.11475947 -0.1608042 -0.06474623
-0.0843277 0.3522847 -0.023595605 -0.059354313 -0.2663356 -0.095490314 -0.2029866 -0.1381266
-0.17161618 -0.09495156 -0.05868383 -0.0010524427 -0.054273926 -0.12262142 -0.47159687 -0.034693316
-0.11690869 -0.017328752 -0.09944936 -0.041238487 -0.027307337 -0.10918374 -0.032226484 -0.09356769
-0.025619853 -0.05768392 -0.07917701 -0.096703954 -0.10952672 -0.12690058 -0.059153184 -0.04997394
-0.065415464 -0.0669535 -0.099010006 -0.10542341 -0.121256255 1.4587913 -0.058977537 -0.1595203
-0.054242093 -0.07549624 -0.051741455 -0.093579896 -0.07256286 -0.005299634 -0.046119433 -0.006669997
1.2319106 -0.03601009 -0.035744146 -0.09626801 -0.09514226 -0.04981957 -0.35493964 -0.14300358
-0.008031573 -0.040948246 0.52858406 0.14819887 -0.0006468591 -0.09772206 -0.041183602 -0.10675631
-0.07920587 -0.14484517 -0.09873013 -0.148076 -0.1366799 -0.01159075 -0.10924536 -0.30773014
-0.18281066 -0.059296656 -0.25429672 -0.044910606 1.3799186 -0.042634502 0.59409004 -0.0791958
-0.09175106 -0.26301712 -0.065615445 -0.064775005 -0.24837993 0.97497296 -0.0568751 -0.051034644
-0.378822 -0.068798594 -0.07240792 -0.28849906 0.71535826 -0.06347195 -0.0937283 -0.06855969
-0.10959367 -0.10155639 0.27619174 0.0335101 -0.03508586 -0.060536217 -0.06509839 -0.07180359
-0.07153892 0.008081714 -0.11479426 0.27766243 -0.067789845 -0.060132697 -0.12101955 -0.06423252
-0.118052125 -0.050835233 -0.007740153 -0.008809709 -0.063891985 -0.12440549 -0.05242256 0.39027297
-0.04147019 -0.118007466 -0.1112365 -0.10642827 -0.09258394 -0.007695076 -0.06527387 -0.07933918
-0.06449252 -0.07577376 -0.050823152 -0.113652594 0.29184705 -0.06643766 -0.11146089 -0.091945074
-0.08908788 -0.07854293 1.1757476 -0.058148574 -0.11707686 0.1805854 -0.3650639 1.202691
-0.089312226 -0.07237531 0.28384805 -0.17256789 0.8609297 0.8717815 -0.07077805 -0.090310104
-0.044415295 -0.06375092 -0.13192758 -0.15995827 -0.4639173 -0.027881691 -0.06858439 -0.0625799
-0.0673461 -0.09301592 -0.09991341 -0.17036547 -0.112597406 -0.055207483 -0.26537743 0.4935739
-0.010632673 -0.08887254 -0.110771574 -0.07372725 -0.075185716 1.155913 -0.055983827 0.4854193
-0.072490744 -0.03684656 0.20365311 -0.1579124 -0.16214629 -0.19325176 -0.07642233 -0.117207244
-0.10258966 -0.12344093 -0.10709358 -0.018793045 -0.042160492 0.6052245 -0.12904452 -0.07268538
-0.14406958 -0.058382485 -0.034107924 -0.079520024 -0.077186435 -0.05015682 0.29971343 -0.0698582
-0.07873238 0.78184456 -0.025750505 0.32096872 -0.10259928 -0.103588514 -0.042863037 0.032945517
-0.056917854 -0.061119415 -0.073852696 -0.022402603 -0.09237441 -0.15194072 -0.06861845 -0.07340872
-0.034795105 -0.13160558 -0.041137345 -0.018157242 -0.047758006 -0.060578715 -0.070852675 -0.12024869
-0.021439888 -0.051659793 -0.1256545 -0.056087874 -0.038258534 -0.18485633 0.58657295 -0.20990582
0.27729434 -0.12015633 -0.060841497 -0.016984288 -0.027436089 -0.24205658 0.8618037 -0.06934377
0.5307574 0.16906135 -0.09638505 -0.036545485 -0.07654286 -0.026518527 -0.059298538 -0.098825075
00000000: 0492 c2bd 9d27 8abd 1cb8 c4bd 7657 7bbd
00000010: f176 64bd 0307 ebbd dba9 24be ac99 84bd
00000020: 00b4 acbd a95e b43e 924b c1bc 821d 73bd
00000030: 245d 88be 6d90 c3bd b8db 4fbe 0f71 0dbe
00000040: 27bc 2fbe f775 c2bd 755e 70bd 1ef2 89ba
00000050: 564e 5ebd f020 fbbd 2575 f1be 941a 0ebd
00000060: d36d efbd 07f5 8dbc 1bac cbbd b0e9 28bd
00000070: a3b3 dfbc ba9b dfbd ebff 03bd 6ba0 bfbd
00000080: bae0 d1bc f945 6cbd 8e27 a2bd b90c c6bd
00000090: 8c4f e0bd 3af2 01be 9c4a 72bd 79b1 4cbd
000000a0: 8bf8 85bd eb1e 89bd c2c5 cabd 3be8 d7bd
000000b0: 3355 f8bd acb9 ba3f 6e92 71bd 4a59 23be
000000c0: f52c 5ebd c69d 9abd d9ee 53bd d1a6 bfbd
000000d0: d69b 94bd 8da8 adbb bbe7 3cbd fd8f dabb
000000e0: 3faf 9d3f 517f 13bd 7468 12bd 2a28 c5bd
000000f0: f2d9 c2bd 9b0f 4cbd a6ba b5be 886f 12be
00000100: dc96 03bc 59b9 27bd 4951 073f 72c1 173e
00000110: fb91 29ba 8122 c8bd 23b0 28bd 0da3 dabd
00000120: b036 a2bd 4b52 14be 0633 cabd 3ca1 17be
00000130: d1f5 0bbe 21e7 3dbc 08bc dfbd ce8e 9dbe
00000140: b832 3bbe 0de1 72bd 2e33 82be 2ff4 37bd
00000150: 2ca1 b03f 84a1 2ebd 4916 183f 6831 a2bd
00000160: fbe7 bbbd 2eaa 86be 6461 86bd c2a8 84bd
00000170: 4f57 7ebe d497 793f ddf5 68bd b409 51bd
00000180: f5f4 c1be 47e6 8cbd 9b4a 94bd 26b6 93be
00000190: b821 373f 95fd 81bd 9ff4 bfbd 0669 8cbd
000001a0: a572 e0bd ccfc cfbd 0169 8d3e e341 093d
000001b0: 31b6 0fbd d3f4 77bd 4e52 85bd c30d 93bd
000001c0: ff82 92bd 2a69 043c 4119 ebbd c529 8e3e
000001d0: 67d5 8abd b44d 76bd 19d9 f7bd 578c 83bd
000001e0: 50c5 f1bd 9b38 50bd 1ca1 fdbb 9956 10bc
000001f0: cdd9 82bd 4ec8 febd 0ab9 56bd dcd1 c73e
00000200: a5dc 29bd e6ad f1bd f6cf e3bd 11f7 d9bd
00000210: a69c bdbd fa26 fcbb 4fae 85bd 947c a2bd
00000220: a814 84bd 462f 9bbd f02b 50bd b1c2 e8bd
00000230: fa6c 953e 7810 88bd 9b45 e4bd b34d bcbd
00000240: b573 b6bd 1edb a0bd e67e 963f 332d 6ebd
00000250: fec5 efbd 61eb 383e a8e9 babe c7f1 993f
00000260: 54e9 b6bd 8239 94bd 8854 913e a3b5 30be
00000270: e465 5c3f 132d 5f3f 15f4 90bd 81f4 b8bd
00000280: d0ec 35bd d88f 82bd 0618 07be 1acc 23be
00000290: 9186 edbe 2568 e4bc f975 8cbd e429 80bd
000002a0: c1ec 89bd 217f bebd 679f ccbd 4974 2ebe
000002b0: 7899 e6bd 3e21 62bd 8ddf 87be b8b5 fc3e
000002c0: aa34 2ebc ce02 b6bd 35dc e2bd 50fe 96bd
000002d0: f8fa 99bd f5f4 933f 4c4f 65bd e188 f83e
000002e0: 0776 94bd 6bec 16bd 718a 503e cab3 21be
000002f0: ad09 26be cae3 45be 5083 9cbd 5a0a f0bd
00000300: 871a d2bd 99ce fcbd e153 dbbd dff3 99bc
00000310: 7bb0 2cbd feef 1a3f 3f24 04be 13dc 94bd
00000320: fa86 13be 7922 6fbd c0b4 0bbd 65db a2bd
00000330: ec13 9ebd 3d71 4dbd 0a74 993e d111 8fbd
00000340: 713e a1bd f726 483f b9f2 d2bc 0356 a43e
00000350: 921f d2bd 3726 d4bd 2791 2fbd e1f1 063d
00000360: b222 69bd 5a58 7abd 1540 97bd aa85 b7bc
00000370: cb2e bdbd 5996 1bbe d487 8cbd 5057 96bd
00000380: 5085 0ebd 9dc3 06be a27f 28bd 7fbe 94bc
00000390: e69d 43bd 6321 78bd 351b 91bd f244 f6bd
000003a0: b4a2 afbc 3899 53bd 93ab 00be 66bc 65bd
000003b0: fbb4 1cbd fa4a 3dbe a529 163f 8df1 56be
000003c0: 86f9 8d3e 8614 f6bd ef34 79bd a222 8bbc
000003d0: a6c1 e0bc aedd 77be 2b9f 5c3f 1b04 8ebd
000003e0: b8df 073f 6b1e 2d3e 8665 c5bd b8b0 15bd
000003f0: 81c2 9cbd 623d d9bc 06e3 72bd cd64 cabd

third_linear_layer.weight f4 [1, 300]
0.016673498 -0.017044697 -8.0610786e-05 -0.015409054 0.037569877 0.0007840289 -0.004433794 0.016910737
0.00059178844 0.014860914 -0.0017248597 0.0006233967 -0.1332785 0.027229529 -0.046274774 -0.014891128
-0.019381024 -0.02152115 0.015037458 -0.031771533 -0.0044731074 0.008796581 -0.024503361 -0.029872295
0.012111656 -0.021954285 -0.0072838194 9.160854e-05 -0.010135114 0.0145856645 -0.004720459 -0.023167871
-0.016383672 0.012539342 -0.015863998 -0.010021597 0.023735099 0.018773347 -0.0063732555 -0.0034341651
0.0014951474 0.025805997 0.01541313 0.016269252 0.002236398 0.026466243 -0.022212386 0.031415083
-0.0059348005 0.001455929 -0.011474111 0.007954637 0.019359324 0.019907266 -0.01552807 -0.0023463573
0.013118806 0.022273093 0.029592061 0.012773207 0.022404436 0.006281009 -0.08740965 -0.028242825
-0.028800603 -0.0033436364 0.014846974 -0.02073225 -0.034869824 -0.019875348 0.01453616 -0.000371731
-0.014949621 0.017199576 -0.0126970345 0.023613939 0.014543278 0.016339099 0.0005990231 -0.025740799
0.024725864 -0.028508505 0.012597746 -0.022490336 0.012562322 0.02041883 0.013789321 -0.024655845
-0.0072706863 -0.031855088 0.015805721 -0.008017433 -0.0040709707 0.012931127 -0.0040919385 -0.001964375
-0.102301344 -0.010330001 -0.00043462595 0.007414245 0.013303324 -0.0067426986 0.022179235 -0.005474324
-0.019443313 0.020835314 0.015362113 -0.012158793 -0.005786159 -0.008262577 -0.0070274537 0.003171182
0.02870605 0.007749292 -0.028039804 0.023972295 -0.008668212 0.0177554 -0.009515091 -0.006239816
-0.007447898 0.014078806 -3.7639762e-05 0.011316077 -0.006260493 0.0053182095 -0.009408212 0.01284603
-0.028945737 -0.008073164 -0.0005785979 0.013008493 -0.020525327 0.017435357 -0.023869919 0.0076155416
-0.029300703 0.014873067 -0.01917872 0.019464632 0.030383399 0.0038337095 -0.011335703 0.010379994
0.010040341 -0.009759853 0.009193494 0.006880739 -0.03810154 0.017887762 0.019273903 0.018113334
-0.039136793 -0.000855101 0.020575851 -7.747392e-05 0.013021387 0.016612876 -0.01494118 -0.0064308923
-0.007143292 0.0067361314 -0.00018863598 -0.0077141887 -0.027093241 -0.00033488692 -0.016687835 -0.010810066
-0.0072247786 0.008493187 0.0031649242 0.021482635 -0.026265003 0.013524591 -0.04101503 0.020935155
0.017735552 -0.011092582 -0.0048836186 0.0008435081 -0.021431522 0.01785008 0.013825291 0.013715407
-0.010787351 -0.06836027 0.0169075 0.003328491 -0.008937662 -0.022841157 0.0020755148 -0.027657209
0.016463367 0.008363559 -0.007955955 -0.0035870546 -0.012236015 0.01282606 0.007213597 -0.01063401
-0.016959567 -0.004208937 0.0074072406 0.003136684 -0.00424533 0.007618696 0.019801116 0.021242587
0.015860656 0.014332909 -0.0004867679 0.028199535 0.016805196 0.015368987 0.032150988 -0.0010564512
0.00088094914 -0.019764472 -0.006211584 0.009095128 -0.0013323255 0.010024111 0.001006627 0.013058138
-0.005355102 -0.019670963 0.013592715 -0.010105264 -0.026417572 -0.026122851 -0.004458054 -0.014097556
-0.0026704564 -0.0073381388 -0.027235568 0.022023445 0.018280428 -0.04594516 0.013476343 0.008528778
0.013931684 -0.019159611 0.0135255195 0.017646367 0.016031384 0.01357712 0.016691031 -0.0013586752
0.013739402 0.017024422 -0.007551745 0.030448316 0.008622089 -0.023743842 -0.024146304 -0.013452816
00000000: dc96 883c 52a1 8bbc 960d a9b8 4276 7cbc
00000010: dfe2 193d 4a87 4d3a 5c49 91bb 6388 8a3c
00000020: 4022 1b3a 317b 733c b014 e2ba 726b 233a
00000030: 297a 08be 7610 df3c 9e8a 3dbd ebf9 73bc
00000040: f4c4 9ebc 1f4d b0bc ac5f 763c de22 02bd
00000050: 2593 92bb 891f 103c 46bb c8bc beb6 f4bc
00000060: f86f 463c 79d9 b3bc 1bad eebb f61d c038
00000070: c00d 26bc b6f8 6e3c 15ae 9abb 8cca bdbc
00000080: 0d37 86bc d071 4d3c 37f5 81bc a031 24bc
00000090: 1c70 c23c 90ca 993c bed6 d0bb bb0f 61bb
000000a0: d2f8 c33a 1967 d33c 5a87 7c3c 1847 853c
000000b0: 8890 123b bccf d83c c0f6 b5bc 1aad 003d
000000c0: b778 c2bb dfd4 be3a e9fd 3bbc 2a54 023c
000000d0: 7297 9e3c 9014 a33c 7269 7ebc 58c5 19bb
000000e0: 43f0 563c 1076 b63c 0d6b f23c b746 513c
000000f0: 8289 b73c ecd0 cd3b d503 b3bd 7f5d e7bc
00000100: 3eef ebbc e920 5bbb b940 733c aed6 a9bc
00000110: a9d3 0ebd a0d1 a2bc 1329 6e3c e4e4 c2b9
00000120: 41ef 74bc 20e6 8c3c 3907 50bc 0572 c13c
00000130: ee46 6e3c 93d9 853c c207 1d3a 5ede d2bc
00000140: e58d ca3c ab8a e9bc c766 4e3c a73d b8bc
00000150: 33d2 4d3c 6445 a73c 9bec 613c 0efb c9bc
00000160: f03e eebb 7b7a 02bd 007b 813c 8d5b 03bc
00000170: c765 85bb 14dd 533c ab15 86bb bebc 00bb
00000180: 5e83 d1bd 2a3f 29bc 82de e3b9 32f3 f23b
00000190: 2ff6 593c dbf1 dcbb 3ab1 b53c f561 b3bb
000001a0: 9547 9fbc d2ae aa3c 5fb1 7b3c ad35 47bc
000001b0: d299 bdbb c25f 07bc 8e46 e6bb 9bd3 4f3b
000001c0: f328 eb3c c6ed fd3b bbb3 e5bc 8c61 c43c
000001d0: 1e05 0ebc c673 913c 2fe5 1bbc 5f77 ccbb
000001e0: 7f0d f4bb cbaa 663c 63df 1db8 1167 393c
000001f0: d224 cdbb 6044 ae3b e724 1abc 2878 523c
00000200: 9c1f edbc 4e45 04bc 0cad 17ba 9321 553c
00000210: bb24 a8bc 98d4 8e3c d98a c3bc cb8b f93b
00000220: 0708 f0bc 2aae 733c b11c 9dbc 4b74 9f3c
00000230: 9be6 f83c f93e 7b3b 62b9 39bc da10 2a3c
00000240: 3e80 243c cae7 1fbc 4fa0 163c d277 e13b
00000250: 5c10 1cbd 5b89 923c 4ee4 9d3c 6a62 943c
00000260: e74d 20bd db28 60ba b08e a83c 7e79 a2b8
00000270: a857 553c ba17 883c dacb 74bc 3cba d2bb
00000280: 4712 eabb c4ba dc3b 96cc 45b9 4ec7 fcbb
00000290: a5f2 ddbc c393 afb9 edb4 88bc b41c 31bc
000002a0: d6bd ecbb 0227 0b3c 9e6a 4f3b 5afc af3c
000002b0: b429 d7bc 3f96 5d3c 60ff 27bd 3480 ab3c
000002c0: 264a 913c a9bd 35bc c306 a0bb df1e 5d3a
000002d0: 2991 afbc 553a 923c 7983 623c 96b6 603c
000002e0: 6ebd 30bc 7800 8cbd 9981 8a3c d022 5a3b
000002f0: 456f 12bc 611d bbbc 5c05 083b 5f91 e2bc
00000300: 2fde 863c 4f07 093c b259 02bc ca14 6bbb
00000310: 9179 48bc 6524 523c 0a60 ec3b 453a 2ebc
00000320: caee 8abc 1feb 89bb 70b8 f23b d390 4d3b
00000330: 691c 8bbb 41a6 f93b f335 a23c ef04 ae3c
00000340: 35ee 813c 94d4 6a3c e234 ffb9 b602 e73c
00000350: 0dab 893c 34ce 7b3c c1b0 033d 9f78 8aba
00000360: 7fef 663a 1ae9 a1bc 8b8a cbbb bb03 153c
00000370: 6da1 aeba 2b3c 243c ccf0 833a cdf1 553c
00000380: da79 afbb 0025 a1bc fbb3 5e3c 8d90 25bc
00000390: aa69 d8bc 97ff d5bc de14 92bb 6ff9 66bc
000003a0: d302 2fbb c574 f0bb 201d dfbc 836a b43c
000003b0: d6c0 953c fe30 3cbd e1cb 5c3c 4abc 0b3c
000003c0: b841 643c 9ef4 9cbc 249a 5d3c 1d8f 903c
000003d0: 4054 833c 9272 5e3c a1bb 883c 9315 b2ba
000003e0: 3b1b 613c cd76 8b3c a174 f7bb bf6e f93c
000003f0: aa43 0d3c 7282 c2bc 78ce c5bc 3369 5cbc
