critic_checkpoint_score_18.pth (torch_old, 544363 bytes, 5 tensors)

first_linear_layer.weight f4 [400, 37]
00000000: 54cc bb3f 0d1e b8be 8fbb c6bf e37c 8b3f
00000010: 8760 4140 8d3c c1bf 7a33 adbf 4200 893f
00000020: cc72 8c3f 8694 843f d310 9d3e 11b8 a6be
00000030: b4bb f3be d30e f9be 48c6 08bf a3a4 a63d
00000040: a8a7 663f cdc1 85bf e965 f8bf 4497 433f
00000050: 63fa 83be d2df 433c dafc 51bd 8b46 4bbe
00000060: 7a56 7fbd 50ee 703f 15f0 0dbf 2714 0240
00000070: d29c a63f d99e a0bd b980 f2bf aee6 fe3d
00000080: d5b2 59bf f9e8 77bd 9396 8ebe 007f a03e
00000090: cb64 f43d 9d31 2ebe 77f6 e5bd 5572 bc3d
000000a0: dc44 9a3f a49b 273d 566c b13e 9601 e03f
000000b0: d312 bdbe 6574 213e b094 d2be 5812 053f
000000c0: c22d c1be dc68 bcbe ffd1 093f 7c84 983e
000000d0: 1979 89be a6ee 29bd a3bd 1b3f 09b2 bbbd
000000e0: 0007 22c0 0014 113e d053 d5bd 8d93 0fbf
000000f0: c0bb f83e 1553 7abe 587b 7fbe 2a0e 2b3f
00000100: 5cd0 3540 44e6 b1be f6ea ff3d 2a37 2ec0
00000110: 1016 3a3c 3050 c0c0 7e6f 973e 9fe9 8d3e
00000120: 98e5 31bd 90ea 58bf c371 2440 814a edbe
00000130: 3299 893f 9435 903b d35c 7dba e33b 7c3e
00000140: 60e8 f4be 883e 1c3e b149 443e 08b2 15c0
00000150: 2768 e53e 4ec6 2d3f a5e2 0f3e aa8a eebf
00000160: 1798 a7bd 9940 50bf ca0b e6be f4a3 12be
00000170: aa3d 52bf 61a7 c43e 78d8 a4be 1e00 13bf
00000180: 8579 06bf d9f8 17be 5bdc 44bf 37eb 9fbe
00000190: 5e30 4f3e 33c7 6440 a3a1 da3e d80d 073d
000001a0: 778a 67c0 1646 50bd b1b4 5a3f 2848 363e
000001b0: 17d7 863e 5c89 9140 71dd 56bf d5ea 133f
000001c0: 7a96 823f 3ced 8c3f b461 f7bf 4728 e93e
000001d0: 8128 9f3e 68f0 5d40 32c2 0d3d 6177 81be
000001e0: 9180 edbe f762 a63e 6677 403f dbe3 a3be
000001f0: 7308 853e 9388 53be 66d2 27bf eca6 90be
00000200: 003f e03f a66f 5a3e d723 11c0 319d 38be
00000210: 252d 9bbe ad2e f7be 5998 813f 33bb 963d
00000220: 719c 443f f1b9 6cbe 7162 3040 00cf 0a3e
00000230: 22c8 6bbd 05e5 2ec0 2d38 1fbe 5723 8fc0
00000240: 9979 2cbf 56f9 b63e 17db 093f 1b1d 07be
00000250: d965 053e c7fb 0abf 2227 a2bf 9661 a5bf
00000260: 28b2 d83f bec8 d23f c8f7 d9be b0d3 033f
00000270: 1248 a73f 9f1c a8be a144 633e 54d7 fcbe
00000280: 217f fabe 2b97 4dbe c359 b83d dd79 233f
00000290: f6d8 bdbf 9731 28c0 e8cc 53c0 b3bc b9bd
000002a0: 8228 ac3d c86a 34bf 77eb fc3e 4f81 0d3f
000002b0: e4b9 eebe 85a0 d93e c650 003e d2e5 fc3f
000002c0: b563 18bf 1734 20be d688 fcbf 4705 1cbe
000002d0: 989b e6bf 3e15 673f 6d75 dcbe cb23 ed3e
000002e0: 0897 19bf e4b0 eebf 790c 8fbf bca7 cdbf
000002f0: f648 203f 56f6 3e40 541c c83f 01f8 1740
00000300: c208 d13d 71db 1bc0 508f f2bf b816 903e
00000310: 57f7 9d3e 5ae9 b33e e68a 2bbe 2026 cf3d
00000320: 3531 283f df8c 273f 96cb 01c0 ef39 b9bf
00000330: 1df3 6c40 1bbc 9cbc 48cb 3cbe 024a e0bd
00000340: 9fd4 af3e 3443 cd3e d854 103f 38f7 703f
00000350: 7b61 de3f e02f 5f3d ff3f 1e3e f1e9 dfbf
00000360: 20fa 163c 69ea 503f cd6e 00bf ea33 1fbe
00000370: 6db7 9bbd e433 95bf 6c53 9b3f 7e3e f7bd
00000380: 7ff6 31bf c743 823e e625 243f b915 003f
00000390: 51cb 0040 b8a5 e23e 65ea 4a3e 85b3 a9bd
000003a0: a004 483f 03f0 0abf c3c1 4bbe 7f66 5ebd
000003b0: b1a7 fa3e 7d42 02be 95a9 3bc0 2cd1 ef3f
000003c0: 7e24 5ac0 b4c1 983f 0d78 f23c 33dd 32be
000003d0: 8803 28bf a061 aabd bbf8 a93e 20c6 803e
000003e0: 050b f5be 9f14 43bf e699 b83e 1cad 113d
000003f0: 55b4 203f 07f4 0b3e eb7c 173f d61d 69bd
1.4671731 -0.35960427 -1.5525988 1.0897487 3.0215166 -1.5096604 -1.3531334 1.0703204
1.0972533 1.0357826 0.30676898 -0.32562307 -0.47604144 -0.48644122 -0.53427553 0.08136871
0.90099573 -1.0449768 -1.94061 0.7640269 -0.25776967 0.011955218 -0.05126653 -0.19851129
-0.06233833 0.94113636 -0.5544446 2.03248 1.3016608 -0.07842798 -1.8945533 0.124463424
-0.850385 -0.060524914 -0.27849254 0.31346893 0.11933287 -0.17011113 -0.1122865 0.092014946
1.2052264 0.040919915 0.34652966 1.7500484 -0.36928424 0.15767057 -0.41129065 0.51981115
-0.37730223 -0.3679875 0.53836054 0.29788578 -0.26850203 -0.04148736 0.6083624 -0.09164817
-2.5316772 0.14167786 -0.104163766 -0.5608452 0.48580742 -0.24445756 -0.24949396 0.6681849
2.8408422 -0.3474599 0.12495987 -2.722117 0.011357799 -6.0097885 0.2957725 0.277173
-0.04343185 -0.84732914 2.5694435 -0.46345904 1.0749876 0.0044009183 -0.0009665016 0.2463222
-0.47833538 0.15258229 0.19168736 -2.3389912 0.44806024 0.67880714 0.14051302 -1.8636067
-0.08183306 -0.8134857 -0.4493087 -0.14320356 -0.8212534 0.3840895 -0.32196403 -0.57422054
-0.52529174 -0.14841022 -0.76898736 -0.31234142 0.20233294 3.5746582 0.42701444 0.032972187
-3.6178262 -0.05084809 0.85431963 0.17800963 0.26335976 4.5480175 -0.8393164 0.577802
1.0202172 1.1009898 -1.9326692 0.45538542 0.3108559 3.4677982 0.034609027 -0.2528639
-0.4638715 0.3249738 0.7518219 -0.32009777 0.2598301 -0.20657568 -0.6555542 -0.2825235
1.7519226 0.21331653 -2.2678125 -0.18028714 -0.3030788 -0.48277798 1.0124618 0.07359924
0.7680121 -0.23117806 2.7560084 0.13555527 -0.05756391 -2.7327282 -0.15548773 -4.473064
-0.67373043 0.35737103 0.5384993 -0.13194697 0.13027133 -0.5429043 -1.2668192 -1.2920406
1.6929369 1.6467512 -0.42571855 0.51494884 1.3068869 -0.32834336 0.22194149 -0.49383032
-0.48925117 -0.20077197 0.09001496 0.63857824 -1.4831836 -2.6280267 -3.3093815 -0.09069195
0.08406164 -0.70475435 0.49398395 0.55275434 -0.46626198 0.4250528 0.12530813 1.9757636
-0.5952714 -0.1564487 -1.9729259 -0.15236388 -1.8016233 0.9026679 -0.4305834 0.4631637
-0.5999608 -1.8647733 -1.1175681 -1.6066813 0.6261133 2.9837852 1.5633645 2.374512
0.102067485 -2.4352686 -1.8949986 0.28142333 0.30852768 0.3513897 -0.16752204 0.10114694
0.65700084 0.6544933 -2.028051 -1.4470805 3.7023385 -0.019132664 -0.1843692 -0.10951616
0.34341905 0.40090334 0.5637946 0.94127226 1.7373499 0.054489017 0.154541 -1.7493268
0.009214908 0.8160768 -0.5016907 -0.15547147 -0.07603345 -1.1656461 1.2134833 -0.12072466
-0.6951675 0.25442335 0.6412033 0.50033146 2.0124094 0.44267058 0.19815977 -0.08286194
0.7813206 -0.5427248 -0.19898133 -0.054296967 0.48956063 -0.12720676 -2.9322255 1.8735709
-3.4084773 1.1934114 0.02959826 -0.17467193 -0.6563039 -0.08319402 0.3319758 0.25151157
-0.4785997 -0.7620334 0.36054915 0.03556548 0.62775165 0.13667308 0.59174985 -0.05691322

first_linear_layer.bias f4 [400]
00000000: a590 ecbf 52ce 30c0 e15d 5dc0 2050 35c0
00000010: f2eb f8bf b22b f1bf bde4 433f b15e 733f
00000020: 4ae3 7fc0 67b0 0740 c102 9fc0 f858 a1bf
00000030: 1684 48c0 8b0e 2ec0 d984 31c0 394f 8cc0
00000040: 181d 22c0 6447 16bf 3578 8abf 7f74 89c0
00000050: 44a6 7bc0 e4ae 76c0 6c9b 41bf fa71 4cc0
00000060: 2062 31c0 521e 3fc0 4a3e 19c0 2da5 14c0
00000070: 23f3 8cbf 9de4 f3bf 7939 1fc0 eb03 4ac0
00000080: c552 1cc0 3a05 d1bf 79cc 38c0 4eef b8bf
00000090: f6a5 19c0 7289 97c0 4158 09c0 1e71 d0bf
000000a0: 4909 54c0 5f2a 48c0 de1e 9dc0 5acf 4cc0
000000b0: c5cb 1ec0 153e 0cc0 9f39 16bf dba7 86c0
000000c0: 0a6e efbf 27fc 75c0 8c23 a0c0 d50a 10c0
000000d0: 114d 29c0 3484 c0bf c2d4 09c0 40ab c0bf
000000e0: d4bd d1bf ee9d bebf 096e 6ac0 80ff fdbf
000000f0: 9b50 44c0 a1b5 15c0 ed40 6ec0 1903 3bc0
00000100: 166a f6bf ea41 48c0 907c 0dc0 38b8 8fbf
00000110: a2b7 993e 49af 80c0 48aa 8bc0 f966 0fc0
00000120: 0a9f 5cc0 17c9 54bf 6ba9 dabf d1d8 aabf
00000130: 2aa3 7a3f 1250 863f e334 78c0 335d 8ac0
00000140: b053 a23e 6af7 30c0 1dae c6bf dfe7 28c0
00000150: 2813 4ec0 5fa9 87c0 51e5 7cc0 a9e0 7dc0
00000160: 8dae 25bf b50e 4bc0 2627 5ac0 4deb 17bf
00000170: 0bde 8ec0 4591 8ac0 5991 5dc0 c741 60c0
00000180: 5027 27c0 d568 36c0 1509 43c0 a2db 65c0
00000190: 4495 6dc0 5146 9cc0 00f9 4abe 5abb 80bf
000001a0: 040b 89c0 2076 63c0 fadd 87c0 3f61 64c0
000001b0: 5841 1ec0 e68b 93c0 5ef2 a3bf e1af 8ec0
000001c0: 7256 8bc0 c760 74c0 2164 94c0 fe49 93bf
000001d0: 30fd 5ec0 38b9 80c0 3ea5 4fc0 fbf2 babe
000001e0: e017 5ec0 512e 55c0 8e5b 90bf 657f 61c0
000001f0: 0a19 48bf a077 48c0 7608 d1bf 6032 8cc0
00000200: 16ab 42c0 ea47 2cc0 b5ba 3dc0 5b4c 31c0
00000210: df0a fabf a4bc 2bc0 367f 6ac0 3d96 96bf
00000220: f196 04c0 2d3b 3ac0 fd84 0ac0 4c10 02c0
00000230: f11d 33c0 007f 0ac0 ece2 c1bf 37b9 bcbf
00000240: 71b1 37c0 93ce 5bc0 af6d 85c0 3179 22c0
00000250: 5c37 97bf 6552 18c0 f24c a5c0 f50a dfbe
00000260: f4a1 34c0 48c8 33c0 a876 f0bf fccd 74c0
00000270: 1d8b 9bc0 02f5 41c0 4d58 19c0 a7e7 f1bf
00000280: b6cd 55c0 2cf6 5dc0 4a39 8fc0 f4b0 b63c
00000290: 779b f8bf 6002 0abf f6d6 5dc0 acfc 79c0
000002a0: 0dc2 efbf c620 07c0 367f 81c0 54e5 4fc0
000002b0: d72a eabf e84b 15c0 5f21 82c0 ce03 f9bf
000002c0: 0e20 afbe 4315 5ec0 d29e 07c0 95a9 acbf
000002d0: 249b 27c0 6d85 68c0 87fe d6be 6a8a 4fbf
000002e0: fa6d 33c0 4a3a 4bc0 7892 80be 7298 14c0
000002f0: b6ac 45c0 2e2d 55c0 11a0 cdbf 744c d5bf
00000300: e899 0abf 1969 7fc0 d5b6 26c0 bbce c4bf
00000310: ea09 9abe 31d3 99bf 86a4 81c0 3876 29c0
00000320: 4a1c 80c0 7e76 78c0 7e35 65c0 993b 87c0
00000330: 25fd abbf 2602 ebbd d8a4 99bf 77a4 3fc0
00000340: 6f59 21c0 37e5 34c0 d78c 40c0 3daa bebf
00000350: 3be1 4ec0 9090 1ac0 666a 94c0 4a6b 86bf
00000360: f8af c9bf e5b1 2dc0 841a 73c0 b0fa 6ac0
00000370: 635f 93c0 44e2 dbbf 9333 02c0 f969 9cc0
00000380: 75b8 11c0 9fca f3bf a3ce 43c0 705f 4dc0
00000390: 3ae7 1bc0 9918 553f cfbb 23c0 1593 51c0
000003a0: 2169 0cc0 eb38 64c0 6aa9 ffbf ae26 e2bf
000003b0: e553 75c0 e491 43bf f8f1 65c0 8a2d 43c0
000003c0: 58d2 33c0 7729 40c0 d95b 643f 8e0a 0bc0
000003d0: 6411 0fc0 0fc5 65c0 1180 81c0 6a0b 70bf
000003e0: bfc4 5fbf d7dc 74c0 0530 42c0 c247 dfbf
000003f0: f545 e2bf 090b 843f ab7e 39c0 f017 7bbe
-1.8481642 -2.7625928 -3.458855 -2.8330154 -1.9447005 -1.884146 0.765209 0.9506636
-3.9982476 2.1201417 -4.969086 -1.2605276 -3.133062 -2.7196376 -2.7737334 -4.3846707
-2.5330257 -0.58702683 -1.0817934 -4.2954707 -3.932023 -3.8544245 -0.7562778 -3.1944566
-2.771614 -2.9862256 -2.3944268 -2.3225815 -1.10117 -1.9054142 -2.4878829 -3.1564891
-2.4425519 -1.632972 -2.88748 -1.444803 -2.4007545 -4.735528 -2.1460116 -1.6284521
-3.3130667 -3.1275861 -4.910018 -3.2001557 -2.481187 -2.1912892 -0.5868167 -4.20799
-1.8705456 -3.8435152 -5.004339 -2.2506611 -2.6453288 -1.5040345 -2.1536107 -1.5052261
-1.6386056 -1.4891946 -3.662966 -1.9843597 -3.0674198 -2.3392107 -3.7227128 -2.922064
-1.9251125 -3.129023 -2.2107277 -1.1228094 0.30022913 -4.021397 -4.3645363 -2.24066
-3.447207 -0.8311934 -1.7082952 -1.3347417 0.9790522 1.0493186 -3.878228 -4.323877
0.31704473 -2.765101 -1.5521885 -2.6391523 -3.2199192 -4.239425 -3.9514964 -3.9668372
-0.6471947 -3.1727726 -3.4086394 -0.59343415 -4.464605 -4.330233 -3.4619963 -3.5040147
-2.6117744 -2.8501484 -3.0474293 -3.5915303 -3.7122355 -4.8835835 -0.19821548 -1.0057175
-4.2825947 -3.5540848 -4.2458467 -3.5684354 -2.4727383 -4.6108274 -1.280834 -4.4589696
-4.3543024 -3.8184068 -4.637223 -1.1506956 -3.4842033 -4.0226097 -3.2444606 -0.36513504
-3.4702072 -3.330952 -1.127794 -3.5234005 -0.78163207 -3.1323013 -1.6330707 -4.3811493
-3.0416923 -2.6918893 -2.9645207 -2.7702854 -1.9534568 -2.6833887 -3.6640143 -1.1764599
-2.0717127 -2.9098618 -2.164367 -2.0322447 -2.7987025 -2.1640015 -1.5147376 -1.4744023
-2.8702052 -3.4344833 -4.169639 -2.538647 -1.1813769 -2.380029 -5.1656427 -0.43563047
-2.8223848 -2.8090992 -1.8786211 -3.8250723 -4.8607316 -3.030579 -2.3960145 -1.889882
-3.3406806 -3.4681501 -4.4757433 0.022301175 -1.9422444 -0.53909874 -3.4662452 -3.9060469
-1.8731095 -2.1113753 -4.0467787 -3.248372 -1.8294324 -2.332758 -4.0665736 -1.9454286
-0.34204143 -3.4700477 -2.1190686 -1.3489252 -2.618844 -3.6331437 -0.41991064 -0.8107058
-2.8035874 -3.1754327 -0.25111747 -2.3218045 -3.0886664 -3.3308825 -1.6064473 -1.6663957
-0.5414109 -3.9907897 -2.6049092 -1.5375589 -0.3008569 -1.2017576 -4.0513334 -2.6478405
-4.0034533 -3.8822322 -3.58139 -4.226025 -1.3436629 -0.11475019 -1.2003431 -2.9944131
-2.5210836 -2.8264902 -3.0085962 -1.4895703 -3.232497 -2.4150734 -4.637988 -1.0501492
-1.5756826 -2.7139828 -3.7984934 -3.6715508 -4.605394 -1.7178426 -2.0343978 -4.887936
-2.2768834 -1.904621 -3.059487 -3.20895 -2.435988 0.8324066 -2.558338 -3.2746022
-2.1939166 -3.565974 -1.9973576 -1.7668054 -3.8332455 -0.76394486 -3.5928936 -3.0496545
-2.8097134 -3.0025308 0.8920265 -2.1725192 -2.2354364 -3.5901525 -4.046883 -0.93767416
-0.87409586 -3.825979 -3.0341809 -1.7443774 -1.7677599 1.0315868 -2.8983562 -0.2452085

second_linear_layer.weight f4 [300, 400]
00000000: d82e f83d 05d1 2abf 8619 553f 2654 80bf
00000010: b663 023f ab91 503f 923e 0abf da23 f93e
00000020: d6ed 69bf b8c6 c3be 9329 083f 32a4 8f3e
00000030: 238a 183f 005b 29be 33dd c0bf 60f5 b9be
00000040: c7fc c9bf 8575 01bf 281d 093f d0cd 873f
00000050: 191d a3bf a6a8 f23e fe70 ba3e 130c 19bf
00000060: b69a debe 89c0 5d3e 5bc0 adbf 6b44 093d
00000070: 188b 6f3e 5291 883f b769 8abf e81d fbbe
00000080: b80b 3e3e 1e02 5bbf 381f cfbf bd30 c0be
00000090: 3c25 53be a989 84bf 4ad8 91bf e701 83be
000000a0: b9f9 dabf 1c8e 38bf 9886 9abf 7804 36c0
000000b0: f2a4 72be 2abd 0d3f 9ed7 a7bf 696e 52c0
000000c0: fbaa ec3e e510 ff3e 3a92 c1bf 6e74 8fbf
000000d0: 0c92 193d 4b7d 8c3e 91da d23e b990 dfbd
000000e0: 865b d2be 6bd8 d03c 2358 97bd 12d9 f4be
000000f0: 9931 a0bf 9982 c33e d78d bfbf 82a4 aebc
00000100: c55f 32be 55a3 b53e 950b 14bf ec07 0e3e
00000110: 5709 493f 2759 2b3d fbe2 d83e 6b6b fa3d
00000120: 57ba a7be 620b f23d d83f 6fbf b329 583e
00000130: de5b 59be 6d72 553d b0ab b9be e3a9 e0bd
00000140: 2ca5 22bf 0a54 91be 5940 8cbe e2e9 3e3f
00000150: bedc 0c3e a9eb 3fbf a943 3abf c874 22bf
00000160: 2a89 f73d 0151 29bf 2478 82be 0523 2cbf
00000170: bbc2 c63f c85a 8d3e c804 103f c8ad 23bf
00000180: dc4e d13e d7e4 25c0 2f1e 0abe c7f2 28bf
00000190: 06d8 33c0 7998 513e 4834 88be df0f 69bf
000001a0: 416e 2cbc 90e5 8fbe efa3 483f 7d97 91bf
000001b0: d224 633f c044 81bf 1861 4abf bbba abbf
000001c0: 6acd 4f3f bab9 29bf 5736 af3e 4c21 08bf
000001d0: 6296 5b3e 7355 a4be 67c4 973e 440c 723f
000001e0: d548 15c0 39db d1bf 4bb0 75bf 02f0 a3bf
000001f0: 75a9 3f3f 5116 32c0 7ba7 9abf 36fd a6bf
00000200: 14b3 95bf 8fa4 e4bf 0a9a 173e 9105 4cbf
00000210: b5c8 b1be 5446 cdbf 934f cfbe 29c7 a3be
00000220: 3178 603f 5ddc 60be 8af3 2bbe c1b2 2bbf
00000230: 066e 1ebf 9d4e 14bf 3da7 24bf 984e 513d
00000240: cb95 73bf 1304 263e eeda 6abe c6ab f63e
00000250: 14d7 51be 0e3c f43e c97b dabe 8869 37bf
00000260: ad22 bfbf f9ee 303f 57ed b33e b713 2fbf
00000270: aecd 60be 8453 7dbf 0438 62bf 5f5d 56bf
00000280: 7897 38bf 7cf7 c4bf 95de 5ebf f607 3f3d
00000290: 0c3e 9abf 2a38 0cbf 7df1 45bf 6c85 f8be
000002a0: df73 2a3e a961 9abf 317f 133f faf0 1dbf
000002b0: 734a 1fbf c7c1 c3be 128a b63f 36af 413e
000002c0: f926 63bf 2314 dcbe eba1 a3bf c5bd bbbe
000002d0: 53b2 00bf 9655 fbbe 9c7c f6bf 443c efbe
000002e0: 96ee 103e 265a 87bf d20d 9cbe 1ae8 9b3d
000002f0: fa00 cebf e9ee 203f 89b5 0dc0 80de 6a3d
00000300: 63ed 323f 6d52 fb3e 48bd 83bf 7c13 14bf
00000310: f353 8ebf 7833 97be 8d68 0fbe b028 7cbf
00000320: 7a3f fd3d 699f 37bf e4c2 1abe 8f80 00c0
00000330: 5d5e 6fbf 5048 a0bd 459d ffbe cac8 9f3d
00000340: 8983 313e 7a6f 1cbf 46d0 a4bf e182 8ebd
00000350: 377b 5d3f 9062 c4be 716f 113f c632 2fbf
00000360: 4c18 1b3f aee9 10c0 a668 1fbf 98a9 5ebf
00000370: de63 71bf 1bdc 82bf b879 92bf c77b 7bc0
00000380: 4b81 20c0 b999 a5bf 43b0 aebf b31e a9be
00000390: ef1d 773e 769c cfbd 42cb 7dbf bf17 e4be
000003a0: b4bb 6d3f 2ebd 6abf 977b 88be 2df4 043d
000003b0: 944a 20bd c5fa e3be d02d ab3e e131 87bf
000003c0: 4790 5c3f 4f77 14bf 4341 66bf cfb8 adbe
000003d0: 031b a3bd 29f5 ae3e 6aa8 96bf dadd 12be
000003e0: 982f 963d e537 63bf 9dd5 ed3d 4424 9abe
000003f0: 9bde d0be 4089 a8be 768e 083f 12d8 03bd
0.1211831 -0.6672519 0.8324207 -1.002568 0.50933397 0.8147227 -0.54001725 0.48660165
-0.91378534 -0.38237548 0.5318844 0.2805496 0.5958578 -0.1653862 -1.5067505 -0.3632002
-1.5780267 -0.50569946 0.53560114 1.0609684 -1.2743255 0.47394294 0.3641433 -0.5978405
-0.4347741 0.21655478 -1.3574327 0.033512514 0.23392904 1.0669348 -1.0813512 -0.49046254
0.18559158 -0.85550106 -1.6181402 -0.37537184 -0.20619673 -1.035451 -1.1394131 -0.2558739
-1.7107459 -0.7209184 -1.2072325 -2.8440228 -0.23695734 0.55366766 -1.3112676 -3.287989
0.46224198 0.49817577 -1.512275 -1.1207407 0.037492797 0.2743934 0.41182378 -0.109162755
-0.41085452 0.025493821 -0.073898576 -0.47821862 -1.2515136 0.38185576 -1.4965161 -0.021318678
-0.17419346 0.35476175 -0.5783017 0.1387021 0.78529876 0.04183307 0.42360672 0.122275196
-0.32759354 0.11818577 -0.9345679 0.21109657 -0.21226451 0.052111078 -0.362638 -0.10969903
-0.6353328 -0.2838443 -0.27392843 0.74575627 0.13756081 -0.74968964 -0.7275949 -0.63459444
0.12086709 -0.6613923 -0.25482285 -0.67240936 1.5528177 0.27608323 0.56257296 -0.63937044
0.40880477 -2.5920923 -0.13488077 -0.6599545 -2.81006 0.2046832 -0.26602387 -0.9103984
-0.010524333 -0.2810483 0.7837514 -1.1374356 0.8872806 -1.0099106 -0.79054403 -1.3416361
0.8117281 -0.6629902 0.34221146 -0.53175807 0.21444085 -0.32096443 0.2964203 0.94549966
-2.3325703 -1.6395026 -0.95972127 -1.280762 0.74867946 -2.782612 -1.2082361 -1.3046024
-1.1695275 -1.7862719 0.14804855 -0.79695994 -0.3472344 -1.6037087 -0.40490398 -0.31987885
0.876834 -0.21959062 -0.16792122 -0.6706963 -0.6188663 -0.57932454 -0.64317685 0.051100343
-0.9515044 0.16212492 -0.22935078 0.48177928 -0.20492202 0.47702068 -0.42672566 -0.716454
-1.4932457 0.69114643 0.35142013 -0.6838946 -0.2195346 -0.9895556 -0.88366723 -0.83736223
-0.7210612 -1.5388026 -0.87058383 0.04663845 -1.2050185 -0.547732 -0.77321607 -0.48539293
0.16645764 -1.2061054 0.57615954 -0.61695826 -0.62222975 -0.38233778 1.4260886 0.18914494
-0.8873134 -0.42984113 -1.2783788 -0.3666822 -0.502721 -0.49088734 -1.9256778 -0.46725667
0.14153513 -1.0574386 -0.30479294 0.07612629 -1.6094048 0.6286455 -2.214205 0.0573411
0.69893473 0.49086323 -1.0292139 -0.5784223 -1.1119369 -0.29531455 -0.14004727 -0.98499584
0.12365623 -0.71727616 -0.15113407 -2.0078466 -0.9350336 -0.078262925 -0.49924675 0.07801969
0.17335333 -0.611076 -1.287606 -0.06958557 0.86516136 -0.38356447 0.5681067 -0.6843685
0.6058395 -2.2642627 -0.62269056 -0.8697753 -0.9429301 -1.0223421 -1.1443396 -3.9294298
-2.5078914 -1.2937537 -1.3647541 -0.33031234 0.24132513 -0.101372644 -0.9913827 -0.44549367
0.9286454 -0.91694915 -0.26656792 0.032459427 -0.039133623 -0.4452726 0.3343339 -1.0562097
0.8615765 -0.5799455 -0.8994333 -0.3393006 -0.079641365 0.34171417 -1.1770146 -0.14342442
0.073332965 -0.88757163 0.11613009 -0.30105793 -0.40794834 -0.32917213 0.5334238 -0.032188483

second_linear_layer.bias f4 [300]
00000000: 737b 673f c4e3 4540 cb1c bcbd bc95 28be
00000010: 5a00 31be d638 b6bd 5791 cdbd 5e4d 2ebd
00000020: 3f03 11be 89f5 b8bd 5aa9 febd 4b64 94bd
00000030: 1c93 a2bd 7c51 c0be f538 7abd 03fd 1dbe
00000040: 445a 81bd 2362 89bd b50b e0be 3395 05be
00000050: 991e cfbd 500a 1bbe e30a 17be cb54 12be
00000060: da1c 7140 eb31 25bf b150 b9bd ecd5 11be
00000070: 0221 12be a66c f3bd 7bae 02be 0ee9 0cbe
00000080: d8d3 70bd 62ae 27be 3591 00be 2971 4bbe
00000090: 2a7d 09be 23c4 b1be 2465 0abe 0e60 32be
000000a0: 2cdf 3fbd 14f2 6abd 7a42 23be 4e58 b0bd
000000b0: 3907 09be cfc7 eabd 55bf c2bd f29e d3bd
000000c0: 0051 dfbd 2ee4 efbd 86b0 68bd 26be d4bd
000000d0: 85fd 70bd 1e8f e9bd a403 17be f7df 32be
000000e0: fae8 1dbe 4968 2ebe c4fe c0bd 762b 1cbe
000000f0: 0f22 d2bd 1b59 0dbe 649a d0bd 6c0c 64be
00000100: f20e cebd 88be 43bd 65c3 16be 65cd 13be
00000110: a4f0 c8bd baa9 9abd 9383 8fbd 718d a9bd
00000120: da5c 16bd fe93 d1bd 520b c4bd cf0f f2bd
00000130: 8def 1dbe 5329 d6bd 889b efbc de54 19be
00000140: ebb4 74bd 5e20 acbd fb21 ddbd 07bb 443e
00000150: ae71 aebd 8059 b7bd 94ea fbbd 4714 9cbd
00000160: d325 bbbd 786a cabc 4d89 a4be cd84 e9bd
00000170: e477 d0bd 3053 f6bd 7477 833f 5c3f d8bd
00000180: 4926 d5bd fb7c 19be 97e8 9abd 1420 05be
00000190: 20a3 ccbc 4e82 80bc 9b2e 5ebe 9701 28be
000001a0: f1d4 aabc 3df3 2cbe 2534 f4bd 1be0 8a3e
000001b0: f459 8bbd 0e39 9bbe fc01 1abe b8f4 04be
000001c0: ee17 c73d 7359 a6bd e125 7bbd 69b6 cebd
000001d0: 99f9 b3bd 9ab9 dabd d944 dbbd 03cf 02be
000001e0: 64bb cabd de0b dfbd 275d dcbd 6d00 ffbd
000001f0: 547e b4bd 1d04 ccbd 69a6 c5bd 68d2 3abd
00000200: 40d5 edbd 22b0 c1bd 0500 a0bd f6f4 8ebd
00000210: d79e 23be 746a 2540 c3ef bcbd 8c0a 7e40
00000220: 8fe9 a7bd b591 fbbd 3bb3 39bd 2c62 09bd
00000230: f817 b5bd a65c 04be ada6 e1bc b182 3cbd
00000240: 05f4 0abe af5e 5abd 593a b8bd 865e e8bd
00000250: e428 fdbd 77ae 60be 9a59 b0bd 8382 4dbd
00000260: 9428 dfbd f8e5 d0bd 6f79 9bbd 0657 8d40
00000270: 9515 0cbe c0dd 0cbe eee6 cebe bc1c bfbd
00000280: c4ca 04be aecf c3bd c20a 8ebd cb50 6a3c
00000290: c447 95bd 390e d93f e56f eabd 576a 0abe
000002a0: 7007 1fbe 904c 0abe 32a5 eabd a66b 0cbe
000002b0: 974d e6bd e24a 96be 8c42 18bd 2e2e afbd
000002c0: 96a9 16be b584 07be c1ac 1cbe 9895 16be
000002d0: 4002 70bd f6d7 fdbd 2485 05be c488 283c
000002e0: 7702 0ebe 811b 0cbe db24 86bd eda7 91bd
000002f0: 9302 2d3f 4aaa 87be 8587 cabd 1484 7fbd
00000300: 1362 a3bd c3c0 f8bd ceb4 c1bd 0d58 09be
00000310: 2436 c4bd 79df ecbc 9d71 7cbd ba68 c5bd
00000320: cfd5 eabd 8984 0fbd b55d 97bd 659a 32be
00000330: 2157 d4bd 37f8 c0bd ab35 18bd b5cf 81be
00000340: 4d63 d5bd 6f15 81bd 4e43 2fbe 749a f7bd
00000350: 64cf fbbd 1f50 00be 78a5 0fbe d479 a8bd
00000360: b38e 5fbd 7d16 5ebd c477 c8bd d99a 5fbe
00000370: 47fc 1cbe 56d5 8abd 79e9 abbe ab1b 16be
00000380: f212 60bd 8254 c7be ac59 f6bd c348 5bbe
00000390: 9345 8dbd 07cf 5ebe e8f7 c4bd 34cb 58be
000003a0: 9a8a 6bbd 852d d4bc 5346 0ebe 350a 0cbd
000003b0: bfa6 34bd de0a 14be bd1b 96bd dd0f c6bd
000003c0: 8bf3 42be 8056 eabd 2575 65bd 4864 fcbd
000003d0: 1347 1bbe 902e 61be 5047 c2bd 7ad6 cabd
000003e0: 5210 6bbd d3e9 b4bd 443b 00be aa30 d6bd
000003f0: eec9 f2bd 9d0a 91bd a426 f3bd 84e6 b8bd
0.90422744 3.0920267 -0.09185179 -0.16463369 -0.1728529 -0.08897559 -0.10037487 -0.04255425
-0.14161395 -0.09031207 -0.12434645 -0.07245692 -0.07938215 -0.37562168 -0.061089475 -0.15428548
-0.06316045 -0.06708171 -0.43758932 -0.13045196 -0.10113258 -0.15140653 -0.14750247 -0.14290158
3.767386 -0.64529294 -0.09048594 -0.14241761 -0.14270404 -0.118859574 -0.12761872 -0.13760778
-0.05879578 -0.16375116 -0.12555392 -0.19867386 -0.13426653 -0.34719953 -0.13515145 -0.17419454
-0.046843693 -0.05735977 -0.15943328 -0.08610593 -0.13381661 -0.11463892 -0.0950915 -0.10333051
-0.109041214 -0.11713444 -0.05680897 -0.103878304 -0.058835525 -0.114042506 -0.14747483 -0.17468248
-0.15420905 -0.17031969 -0.09423593 -0.15250954 -0.102604024 -0.13803522 -0.10185698 -0.22270364
-0.10061444 -0.047789127 -0.14722975 -0.1443382 -0.098115236 -0.07551904 -0.07007518 -0.08278931
-0.036709644 -0.102333054 -0.09572472 -0.118194215 -0.15423413 -0.10457101 -0.029248968 -0.1497378
-0.05974285 -0.08404611 -0.10797497 0.1921197 -0.085177764 -0.08952618 -0.123006016 -0.07621055
-0.09138074 -0.024708971 -0.32136002 -0.11402283 -0.10179117 -0.120275855 1.0270829 -0.1055896
-0.10407693 -0.14989083 -0.07563894 -0.13000518 -0.024980128 -0.015687134 -0.21697466 -0.16406856
-0.020853492 -0.16889663 -0.11924008 0.27124104 -0.068042666 -0.30316967 -0.1503982 -0.12983978
0.09721361 -0.0812253 -0.06131542 -0.10093386 -0.08787841 -0.10679932 -0.10706491 -0.12774281
-0.09899023 -0.10890935 -0.10759955 -0.12451253 -0.08813158 -0.09961722 -0.09650881 -0.045610815
-0.1161294 -0.09457423 -0.07812504 -0.06980316 -0.15978561 2.5846224 -0.092254184 3.9693937
-0.08198845 -0.12283651 -0.045336943 -0.03354089 -0.08842462 -0.12925968 -0.027545298 -0.046023075
-0.13569649 -0.053312954 -0.08995504 -0.11346154 -0.12361315 -0.21941553 -0.0861084 -0.050173294
-0.108964115 -0.10200113 -0.07591521 4.416873 -0.13680108 -0.13756466 -0.4041056 -0.093316525
-0.12967974 -0.09561096 -0.06935646 0.014301489 -0.07289079 1.6957465 -0.114471234 -0.13517128
-0.15530181 -0.13505769 -0.1145729 -0.1371294 -0.11245268 -0.29354006 -0.03717284 -0.0855373
-0.1471313 -0.13234217 -0.15300275 -0.14705503 -0.058595896 -0.12394707 -0.1303907 0.010286514
-0.13868128 -0.13682367 -0.065499984 -0.071121074 0.6758205 -0.26497108 -0.098891295 -0.06238182
-0.079776905 -0.121461414 -0.09458314 -0.13412495 -0.09580639 -0.028915154 -0.061631788 -0.09639116
-0.11466562 -0.035038505 -0.0739092 -0.1744171 -0.10368181 -0.09422343 -0.037160557 -0.2535378
-0.10419331 -0.06302916 -0.17115518 -0.120900065 -0.12295416 -0.12530564 -0.14027965 -0.08226362
-0.054579448 -0.054220665 -0.097884685 -0.21836413 -0.15330611 -0.06778972 -0.33576563 -0.14658992
-0.054705568 -0.38931662 -0.12028822 -0.21414475 -0.06898036 -0.21758662 -0.09617597 -0.21171266
-0.057505228 -0.025900612 -0.13894014 -0.03418942 -0.044104334 -0.1445727 -0.073295094 -0.096709944
-0.19038217 -0.1144228 -0.05601992 -0.12323815 -0.15163831 -0.21990418 -0.09486258 -0.099041894
-0.05738861 -0.08833661 -0.12522608 -0.10458501 -0.11854921 -0.070821024 -0.118726045 -0.09028342

third_linear_layer.weight f4 [1, 300]
00000000: a889 1a3c 91fb fe3b 0a47 433b afe8 adb8
00000010: f9e1 b0bc dffa 89bb 4c74 c13c f862 923c
00000020: 26ba 8ebb 3404 0cbc 56ef a2bc 9a79 35bc
00000030: a8ec f2bb 1001 a83c 7ce5 94bc 9760 a6bc
00000040: 1df5 933c e7b8 b2bc 107d 15bc d2d2 99bc
00000050: 846b b1ba eff4 853b 260a 073c 6345 003c
00000060: 0332 3d3c bf07 d9bb 856e 9b3b 090a 093c
00000070: 7d82 ae3b 4a99 863c d940 3b3c fc0d b63c
00000080: 9434 ecbc 1b0c 90bc 6096 a53b 602a c9bb
00000090: 4d5c 5e3c e588 e53c 098f f13b 0166 20b9
000000a0: 0349 f1ba d91c f5bb 8f23 efbc af8f 5e3c
000000b0: 8746 1b3c 9b0c b23a fa4f 703c 0c6e 6d3c
000000c0: 786d e8bc ef48 a53b 84d3 0d3c c6e2 0d3c
000000d0: 9324 d93b e697 783c 6cc0 17bc 66e4 1ebb
000000e0: 8d48 b83b fecf c1bc 7919 e73b 6177 f4bc
000000f0: 607c a2bc 7b57 393c 1b09 16bc 194a 03bc
00000100: f4a7 84bb 5eec 89bb 6f30 8f3c f634 a83c
00000110: 6301 533c 4952 f83c 1936 b2b9 86d2 0fbc
00000120: fd6c acbc 4ea3 4ebb 94b8 cf3c 06aa 3fbc
00000130: c103 d5bb 1f7f 203b e0a9 99bc d017 c5bc
00000140: eb4b d53b 3cf2 dc3a 8aa3 e63a 32a9 55bc
00000150: 1bda a93c 4baa 05bc 1076 abbc 7bf0 ef3c
00000160: e10d 74bc 2df2 e33c 33e4 993c 92ca bd3b
00000170: 899b 48bc 6765 bc3c 056c 10bd 44c6 b1bc
00000180: 976e a23c ab6f 98bb 0d83 1fbc d117 97bb
00000190: 0bdf a539 bda0 1abc a161 b43c 73b7 a8bc
000001a0: d729 9bbb 4801 773a 66cd 8fbb dcdd 853c
000001b0: 9898 463c ab57 cfbb 1f82 d33b aad3 b83c
000001c0: c611 d3bb 4daf e23c 82f9 923b 9534 ff3b
000001d0: e942 debc 4d71 6b3c 1fde 1bba b26b e13c
000001e0: a7d5 933a 830f 833c 1d91 9a3c 2051 ab3c
000001f0: 1470 a93b f30c 223b 1277 8c3c fd2d 6d3c
00000200: e7e6 48bc ad47 c3bc e707 b63c aae1 293a
00000210: 14f3 ddbc 95c9 c43b d7ba 9d3c 26d1 f03b
00000220: ae7b b6ba 842d 373c eae3 d2bc 7eb7 64bc
00000230: 1d30 e9bb 77d2 623c 8b2e 35bc bd85 5a3c
00000240: 11f6 bbbc ce9a 4a3b d7f5 7fbc c39d a6bb
00000250: e1c5 b2bc 8a39 eabc a2af d9bb 01d2 a43c
00000260: c56c 8a3c 6242 a83c 51b8 083c 541f 1d3c
00000270: 55ea b2bb 6f65 e73c d3ff 7a3c 0015 1ebc
00000280: 337f 663c 95fd cdbc 07b5 5bbc ee8e 99bc
00000290: 8add b93c 8be1 e6bc d679 27bb 8cfa 69bc
000002a0: d08d 883b c447 7ebc 1641 87bc a487 ad3c
000002b0: f8b0 d9bc 7e23 40bc f074 d23c 0cd4 0fbc
000002c0: 3bd3 8b3c 0684 593c 27d7 babc e518 b5bc
000002d0: 699e cabc 78f9 c3bb 945f 293c 9126 aebc
000002e0: 68c2 fdba ee8c 4a3c b013 183c 8802 37bc
000002f0: f5c7 d43c 571c adbb 9602 93bb a817 b4bc
00000300: de24 9c3c 0690 d8bc 3200 90ba 4289 4f3a
00000310: 0d14 6abc 8e44 6abc 05b4 dfbc 295a e4bc
00000320: b4f4 4cbc dd99 08bb ca8c 6fbc 96b3 cabc
00000330: bfc6 803c c926 253c 0be7 0abb 2b8b 033c
00000340: 0770 b6bc 298b d53b cefe 533a 99c8 853c
00000350: 8d4a edbb 5584 44bc 7fc4 77bb baac 9cbc
00000360: 12ef 143c f94e 54bc 13c3 0f3c 8844 00bd
00000370: d4f3 a23c 141c dfbb 20f5 9fbc 9db5 863c
00000380: 20ba 733c ec7e 92bc 3bd5 e5bb a0c1 9fbc
00000390: 426e 2dbc eb9d 1b3b 0e43 f03b c0ea c43c
000003a0: c425 933c 3464 64bc 4bbd 83bc b461 ca3c
000003b0: e0f3 4cbc 5700 2bbc 32ca bb3c 1375 b4bc
000003c0: 733f a8bc b239 8e3c dbb0 27bb 7e0a 703c
000003d0: 2c79 053b 5f3d 02bb 01a8 423c 6ef4 4bbc
000003e0: b2d7 303c b77f b9bc feb0 fb3b 7057 893b
000003f0: 7bf0 34bc 60b6 49bb 32c0 2abc d152 b6ba
0.009432234 0.007781454 0.0029796981 -8.2926235e-05 -0.021592127 -0.0042108144 0.023615025 0.017869458
-0.0043556867 -0.008545924 -0.019889515 -0.011076355 -0.0074134655 0.02050832 -0.018175833 -0.02030973
0.018061215 -0.021816684 -0.0091240555 -0.018777285 -0.001353607 0.0040880363 0.008242166 0.007829043
0.011547568 -0.006623238 0.0047433996 0.008364209 0.005325614 0.016430516 0.011429035 0.022223465
-0.028833665 -0.017583897 0.0050533265 -0.0061390847 0.013571811 0.028019378 0.0073717874 -0.00015296788
-0.00184086 -0.0074802455 -0.02919176 0.0135840615 0.009477264 0.0013584079 0.014667505 0.014491569
-0.028372511 0.0050440948 0.008656386 0.008660024 0.0066266744 0.015172934 -0.009262186 -0.0024245023
0.005623883 -0.023658749 0.007052597 -0.02984208 -0.019834697 0.011312361 -0.009157444 -0.008013272
-0.004048342 -0.0042090854 0.01747915 0.020533066 0.012878749 0.030312674 -0.00033991112 -0.00877822
-0.021048063 -0.0031530443 0.025356568 -0.011698252 -0.0065006916 0.0024489833 -0.01875776 -0.024059206
0.0065092943 0.001685686 0.0017596346 -0.013040828 0.020733884 -0.008158277 -0.02093032 0.029289475
-0.014895887 0.02782544 0.018785572 0.0057919705 -0.012244114 0.022997571 -0.035259265 -0.021700986
0.019828124 -0.0046519837 -0.009735835 -0.0046109934 0.00031637432 -0.009437737 0.02201921 -0.020595288
-0.0047352123 0.0009422493 -0.004388499 0.016341142 0.012121342 -0.0063275895 0.0064547206 0.022561867
-0.0064413277 0.02767148 0.00448531 0.0077882507 -0.027131515 0.014370275 -0.00059458794 0.027517173
0.0011278883 0.015998608 0.018868024 0.020912707 0.0051708315 0.0024726957 0.01714662 0.0144762965
-0.012262083 -0.023837889 0.022220565 0.0006480465 -0.027093448 0.0060054758 0.019254131 0.007349151
-0.0013922357 0.011180285 -0.025743444 -0.013959764 -0.0071163313 0.013844124 -0.01105846 0.01333755
-0.022944482 0.0030915025 -0.015622578 -0.0050847246 -0.021822872 -0.02859189 -0.0066432515 0.020119669
0.016897568 0.020539466 0.008344726 0.009589989 -0.0054600635 0.02824661 0.015319782 -0.0096485615
0.014068413 -0.025145331 -0.0134098595 -0.018744912 0.022688646 -0.02818372 -0.0025554798 -0.014280926
0.004167296 -0.01552004 -0.016510528 0.021182843 -0.026573643 -0.011727212 0.025690526 -0.008778583
0.017068496 0.013276106 -0.02280767 -0.022106597 -0.024733739 -0.0059806667 0.010337729 -0.021258624
-0.0019360306 0.012362702 0.009282038 -0.011170037 0.025974253 -0.0052829194 -0.0044863923 -0.021983936
0.019060548 -0.026435863 -0.0010986386 0.00079168763 -0.014287007 -0.014298571 -0.02730752 -0.027875023
-0.012509514 -0.0020843663 -0.014620969 -0.024743836 0.01571977 0.010080048 -0.0021194841 0.008028786
-0.022270216 0.0065168333 0.000808698 0.016331004 -0.007241553 -0.011994441 -0.003780633 -0.019125331
0.009090202 -0.012958282 0.008774537 -0.031315356 0.019891657 -0.006808767 -0.019526064 0.016444022
0.014875919 -0.017882787 -0.0070139444 -0.019501507 -0.01058537 0.002374525 0.0073322123 0.024037719
0.017962344 -0.013939906 -0.016081473 0.024704792 -0.012509316 -0.010437093 0.022923563 -0.022028482
-0.020538067 0.017361496 -0.0025587592 0.014650939 0.0020366414 -0.0019873006 0.011880876 -0.012448413
0.010793613 -0.022643907 0.007681011 0.0041913316 -0.011043663 -0.003077887 -0.0104217995 -0.0013910179
